checkpoints/comb_spike_ball_demo/SingleMeshGenerator_recover2.pth (torch, 516811 bytes, 72 tensors)

levels.0.layers.0.0.conv.weight f4 [32, 4, 1]
000000 15 c4 df be ef 01 9e 3e 60 a1 aa be d4 6d b1 3e
       -0.43704286 0.3086085 -0.33326244 0.34654105
000010 3b 75 90 3d 63 43 a2 be c0 54 01 3e 31 1a f4 be
       0.0705361 -0.31692037 0.12629986 -0.47676232
000020 7e 02 43 3e 6d 6c 8d 3e 11 47 c5 bd da 30 dd bd
       0.1904392 0.27621785 -0.096326955 -0.10800333
000030 50 bd 26 3e 18 b5 3c be 82 d1 c5 3e 00 31 5d be
       0.16283154 -0.18428457 0.38636404 -0.21600723
000040 fc 11 9a be b7 48 c3 be c3 e7 b8 be dd b7 12 3e
       -0.30091846 -0.38141415 -0.3611432 0.14327951
000050 33 53 61 3e 46 16 f1 be 5f 5e b2 bd 77 43 20 be
       0.22004394 -0.47087306 -0.08709406 -0.15650736
000060 6e cb c7 be f4 35 de 3e 85 14 05 3e 95 e0 13 3d
       -0.39022392 0.43400538 0.12996109 0.03610285
000070 7c ca 9a 3e 23 8b 0c be ee 96 99 3e 1b 34 08 3f
       0.30232608 -0.13724951 0.29997963 0.53204507
000080 90 9b 6e be dc 09 70 3d f1 8e ed bc 5b 26 55 3e
       -0.2330153 0.058603153 -0.028998824 0.20815413
000090 33 85 8c be 4e b5 fc 3d ee 3c b4 be c6 5e 5f be
       -0.27445373 0.123392686 -0.35202736 -0.21813497
0000a0 02 0a a0 3d 4e 24 2f 3e 69 53 fd bb bb 8e fb 3d
       0.07814409 0.17103693 -0.0077308905 0.12283083
0000b0 6a 01 39 3e ad 37 ec be c4 dd e8 be 98 45 a9 3c
       0.18066946 -0.46136227 -0.45481694 0.020663068
0000c0 9c 2d ae 3e d0 d1 f2 3d 18 23 b4 bc ae 7d bb 3e
       0.34019172 0.11856425 -0.02198939 0.36619323
0000d0 7b ad cb 3d b4 f0 06 3f db 9f 9a 3e e0 3e f6 3d
       0.09945198 0.52711034 0.30200085 0.12023711
0000e0 53 16 c8 bd 50 b5 7c be a0 78 46 3e f9 0d ef 3e
       -0.09769883 -0.2467854 0.19381952 0.46690348
0000f0 a1 1b 95 3e d6 66 8a 3e 12 ae 3e be 35 ca 9a 3e
       0.29122642 0.27031583 -0.1862109 0.30232397
000100 8f 6d e6 3d 61 59 ed bd ef 59 0b 3e d4 40 99 be
       0.112513654 -0.11589313 0.13608526 -0.29932272
000110 cd 8d 3e 3d 1e a5 6c be 23 9b 0c 3e e6 cc 42 be
       0.04652195 -0.23109862 0.13731055 -0.19023475
000120 b3 a3 91 3e 01 fa f3 3d 81 65 79 be 58 37 80 be
       0.28445205 0.11912919 -0.24355127 -0.25042224
000130 85 a6 a4 3e 52 a0 e1 3e 9b da 38 bd cd 84 c0 3b
       0.32158294 0.44067627 -0.045130353 0.005875206
000140 76 41 22 be 20 f9 5c be 1a 84 bd 3e 86 55 9c be
       -0.15845284 -0.21579409 0.37014848 -0.30534
000150 fd e9 cf 3e 4f 8b 7d be ff bd de be f1 a3 e0 be
       0.40608206 -0.24760173 -0.4350433 -0.43875077
000160 9e ae a7 3e 28 dd 94 be ed ad a6 bd e7 d8 41 3e
       0.3275041 -0.2907498 -0.081386425 0.18930398
000170 f9 8b 97 bd cf 9d 2c 3d 32 b2 cc 3e c7 4d 93 be
       -0.073997445 0.042142686 0.39979702 -0.28770277
000180 80 ff d6 be d1 e8 81 be 07 30 a5 3e bc c0 c3 3e
       -0.41991806 -0.25372937 0.32263204 0.38232982
000190 31 6b 88 3e 93 81 5f be c6 7c 9c bd 5a 6c de 3e
       0.2664428 -0.21826772 -0.07640986 0.4344204
0001a0 ec 53 33 3e c2 92 1f be 99 47 9a 3e 56 ce 9b be
       0.17512482 -0.15583327 0.3013275 -0.3043086
0001b0 d7 d5 b0 be dd 10 87 3e 2c f4 d9 be 7e 01 19 be
       -0.34538147 0.26380053 -0.425691 -0.14941975
0001c0 62 69 51 3d af ba 95 3e 8c 6c d7 3e 3e a9 b5 3e
       0.05112589 0.2924399 0.42075002 0.35480684
0001d0 f6 4d 1b be 46 7d a9 be 3d 94 e5 3e d2 d5 a4 be
       -0.15166458 -0.3310339 0.4483966 -0.32194382
0001e0 00 38 a0 be 9a 0a be 3e 58 88 ec bd b9 01 74 3e
       -0.31292725 0.37117463 -0.11549443 0.23828782
0001f0 19 20 0a bf b0 f7 c3 3e 97 6d 08 3d 39 36 04 3b
       -0.5395523 0.38274908 0.033307638 0.002017392

levels.0.layers.0.0.conv.bias f4 [32]
000000 b2 02 d5 3e d2 4b 01 be 23 da ac 3e 22 7c b6 be
       0.4160362 -0.1262658 0.33760175 -0.3564158
000010 1b 01 df bd 22 49 8a 3e ff 2e 94 3e 13 be f2 3e
       -0.10888883 0.2700892 0.28942105 0.4741064
000020 50 bb 22 bd f3 90 e2 3e 9c 8b 35 3e 2a 33 27 3e
       -0.039729416 0.44251212 0.17729038 0.16328111
000030 1c 8e c8 3e ac 85 3b be 28 be a2 be 9e 4c b5 bc
       0.3917092 -0.1831271 -0.31785703 -0.02213126
000040 ef 7a e6 bc c5 6a 93 3e fe 16 e8 be d1 18 f6 3e
       -0.028134791 0.28792396 -0.45330042 0.48065808
000050 e2 7b ea 3e e4 39 e9 be 13 58 bf bc 40 71 5c 3d
       0.4579764 -0.4555198 -0.023357427 0.05381894
000060 a3 e9 c3 3e 1e 57 88 3e ba 64 c3 3e 22 18 38 3e
       0.38264188 0.26628965 0.38162786 0.17977956
000070 77 35 12 3e 4b 79 cb 3c 10 b0 f6 bd ab 1e b1 3e
       0.14278208 0.02483811 -0.120453 0.3459371

levels.0.layers.1.0.conv.weight f4 [32, 64, 1]
000000 82 f7 ba bd bb 0d af bd 82 ab 95 bd 67 d5 40 3d
       -0.091292396 -0.08547541 -0.07308103 0.047078516
000010 3d 92 27 3b 16 6f 58 bd 86 58 f9 3c da 9b 27 bd
       0.0025569343 -0.052840315 0.03043772 -0.040920116
000020 89 b4 26 3b 30 a2 ef 3d 1e 1f 5a 3d 5b 54 c9 bd
       0.0025437197 0.11700857 0.053252332 -0.09830543
000030 31 27 22 bd a6 43 93 bd 47 f5 ac bc df b6 0a be
       -0.039588157 -0.07190637 -0.021113051 -0.13546322
000040 3d 4a bc bd 90 06 90 bd b9 4b 0e bc a9 ea 4e bb
       -0.09193847 -0.07032502 -0.008685046 -0.0031572974
000050 72 fd 00 3d 33 ee 1a 3d 6d 5a c5 3a 0f 62 1b bd
       0.031491704 0.03782482 0.0015056856 -0.037935313
000060 ce bf 35 3d 44 e4 8f bd fb b9 cf bc 35 1d 08 3e
       0.044372372 -0.0702596 -0.025357237 0.13292392
000070 5c 6b ba bc 46 9c b3 bc 54 e5 f5 bc 6f 94 90 bc
       -0.022756271 -0.021925103 -0.030016579 -0.017648904
000080 f4 64 95 3d 56 03 e8 3c 90 e2 11 be 88 d7 21 bd
       0.07294646 0.028321903 -0.14246583 -0.039512187
000090 c4 d9 24 3d 7e 3d cb 3d f9 da 12 3c 79 fc 8b bd
       0.04024674 0.09923838 0.00896334 -0.06835265
0000a0 07 4f 9b 3d c7 0a 9e 3d dd 7b 55 3d d4 89 ab 3d
       0.07583433 0.07716899 0.05212008 0.08375898
0000b0 40 a6 d2 bd 25 ad e0 3c d6 83 23 bb 6b 01 89 3c
       -0.10285616 0.027426312 -0.0024950407 0.016724309
0000c0 99 25 eb 3d 45 20 29 3d 4a 9f 09 be d7 6d 1e 3d
       0.114817806 0.04129054 -0.1343967 0.03867897
0000d0 81 a3 ec bc 39 3d a3 bd 3a fb ef bd 12 4f db 3d
       -0.028886558 -0.07970662 -0.117178395 0.10708441
0000e0 07 77 57 3d 20 3e cb bd 19 77 2e 3e 9b 6d f8 bc
       0.052603748 -0.09923959 0.1703762 -0.030325701
0000f0 20 a8 37 3d 70 03 00 bc 20 29 ff 3d a6 34 3c 3e
       0.04483807 -0.00781332 0.12459016 0.18379459
000100 9d 62 e4 bd 02 c7 48 bc 05 1e 23 bd c3 63 81 bc
       -0.111516215 -0.012254478 -0.03982355 -0.01579464
000110 a0 7e 66 3d 69 3d 93 3c 16 96 04 bd 9b d9 a6 3d
       0.056273103 0.017973619 -0.032369696 0.08146974
000120 2d c6 b8 3d 07 0e d0 bd fb 69 36 bd f1 68 ca 3d
       0.09022174 -0.101589255 -0.044534665 0.09883297
000130 c6 74 4a 3d c0 e5 4a bd 3a a2 37 bc 54 2a 9e 3d
       0.04942777 -0.049535513 -0.011208111 0.07722917
000140 85 2a be 3d 2a e0 da bd 46 be a0 bd 6b 39 95 3d
       0.09285454 -0.10687287 -0.07848792 0.07286342
000150 c2 37 6f bd 46 f5 80 3c 88 55 00 3e e9 0b bc 3c
       -0.058402784 0.015741955 0.12532628 0.022954898
000160 65 92 9a 3c 00 dc 76 3d a1 8b 2b 3d a5 8d b0 bd
       0.018868634 0.060268402 0.041881207 -0.086207666
000170 42 01 a6 bd c4 f7 b7 bd ef a5 b9 bd 2d b8 3e 3d
       -0.08105709 -0.089828044 -0.090648524 0.046562362
000180 7e 4f 1d 3d ee da a2 3d 44 fe e5 bc 80 eb 62 3c
       0.038405888 0.07951914 -0.028075345 0.013850093
000190 b0 73 23 3d 30 fd 8c bd 9a e6 ac bc c5 2e 75 bc
       0.03990525 -0.06884229 -0.021106053 -0.014964764
0001a0 07 fc 86 bc dd 8e bc 3d 6b 7d 2d 3c 51 41 f1 3d
       -0.016477598 0.092069365 0.010588984 0.11780036
0001b0 36 17 11 be cd bf 85 bd f9 d2 fa 3d c0 46 08 be
       -0.1416901 -0.06530724 0.12247271 -0.13308239
0001c0 be 6f 97 bc db 7a d7 3d d2 5a c0 ba 20 21 bb bc
       -0.0184859 0.1052148 -0.0014675504 -0.022842944
0001d0 58 f6 b6 3c 01 b8 c8 bd 93 14 5b 3d c0 53 31 bd
       0.022334263 -0.09800721 0.053486418 -0.04329276
0001e0 6b 1d 7d 3d a2 4d bd bd 2a d7 9c bd 83 81 f9 3d
       0.061795633 -0.09243323 -0.07658227 0.121829055
0001f0 fb df b0 bd 1f cf e7 3d d9 c6 7a 3d 97 a4 c5 3d
       -0.08636471 0.11318802 0.061224792 0.09650534
000200 8e 85 6d bc f3 de 3d bd 86 a5 be bd 0f 90 fa bd
       -0.014497174 -0.0463552 -0.09308915 -0.12234508
000210 22 03 86 bd 49 2a cb 3d bf 4e 72 bd 05 1a 33 3d
       -0.06543566 0.09920175 -0.05915713 0.043725986
000220 9e 63 8e bc f4 83 bf 3d 46 16 aa 3d dc 35 bc 3c
       -0.017381486 0.0935134 0.083050296 0.0229749
000230 bd db 16 3e d8 b5 d3 bd 25 7e 88 3d 21 87 1f 3e
       0.14732261 -0.10337418 0.06664685 0.15578891
000240 25 e4 b2 3d c4 4c 4c 3d 60 63 b0 bd 4a d2 18 bd
       0.08734921 0.049877897 -0.08612704 -0.037309922
000250 25 5c 8d 3c be 0e e7 3d 68 e1 be 3d 8c 2c 0e be
       0.017255852 0.11282109 0.093203366 -0.13884181
000260 38 9e fa bd 06 3c 9e 39 a1 44 ca 3c 10 27 a6 bc
       -0.12237209 0.0003018083 0.024690928 -0.020282298
000270 cc ce cd 3d d7 df 43 bb af a9 b4 bd 5e d5 09 bd
       0.10049209 -0.0029888058 -0.08821427 -0.03365075
000280 db 26 c9 bc a2 50 f5 3d c1 10 78 3d fa 97 a6 bb
       -0.02455466 0.1197827 0.060562853 -0.005084035
000290 f5 68 79 3c 0b 39 d3 3d 0a da 5a bd e9 c4 fa bc
       0.015222778 0.103136145 -0.053430595 -0.030611472
0002a0 d1 21 51 bb e6 6f 3a 3d 0c 9a 30 bc b7 bd 4d bd
       -0.0031911025 0.04551687 -0.010778915 -0.050229754
0002b0 fa ab cc bd 57 cd 87 bd 3b ce 9e 3c fb 43 c5 bc
       -0.099937394 -0.06630962 0.019385448 -0.024080267
0002c0 8f f3 5b bd 2a 3f 06 3e 4d 51 47 3d e9 6e 5c 3d
       -0.053699072 0.13110033 0.04866152 0.05381671
0002d0 72 56 a6 3d c3 3d 08 3e ae db b5 3d 6a 3c 37 3d
       0.08121957 0.1330481 0.08879791 0.04473535
0002e0 25 bf c7 3d 13 5a 9e bd 0e 21 5c 3d 94 1a ca bc
       0.09753255 -0.07732024 0.05374246 -0.024670877
0002f0 6a 02 50 3c 1e 73 02 be 41 53 a2 3c f4 7e 9b bd
       0.012695888 -0.12739226 0.01981509 -0.07592574
000300 2c 36 12 3d 88 1a d7 3d 63 48 63 bd 95 2b 55 bc
       0.035696194 0.10503107 -0.055488955 -0.013010879
000310 b7 7c a2 bc 1c eb af 3d a7 37 c5 bc 0f f0 df 3d
       -0.01983486 0.085897654 -0.024074389 0.109344594
000320 8b 50 f3 3d d9 dd 7e bd 5c b5 81 bd 56 43 e2 bd
       0.11880597 -0.06222329 -0.0633342 -0.110479996
000330 2f c5 d9 3d ca 98 0c be 3d 1b b3 3c f6 98 3b 3d
       0.10633313 -0.1373016 0.021863574 0.04580017
000340 ca 22 d7 3d bd a7 94 3d c6 0e ff 3d e7 64 ce bd
       0.10504682 0.07258556 0.1245399 -0.10077839
000350 cc 4a 93 3d c2 9f 0e be 5c f1 89 bd 55 11 07 3d
       0.07192001 -0.1392813 -0.06735489 0.032975513
000360 2d 5a 4e 3d cf 7d 3e 3d 6a b5 e8 bd 83 dc de bc
       0.050378967 0.0465067 -0.11362727 -0.027204758
000370 41 f5 bd bd 67 15 c5 3d f2 e8 3c bd 47 54 e1 3d
       -0.09275294 0.09623223 -0.04612059 0.11002403
000380 89 97 62 3e 5b 0c 80 bd 8b d2 f8 bc f7 76 8e bd
       0.22128119 -0.062523566 -0.030373832 -0.069562845
000390 10 7e d7 3c f5 f1 b4 bd bf bd 38 3d bd 60 16 be
       0.026305228 -0.08835212 0.04510283 -0.1468534
0003a0 11 67 c2 3d dc 5a 64 3d b1 8a e6 bc 2e d7 29 3d
       0.094923146 0.055750713 -0.028142305 0.041464977
0003b0 16 36 4f bd 2e f9 8e 3d 7e 0b 16 3d 2a 3a 66 bd
       -0.05058869 0.06981121 0.036632054 -0.056207813
0003c0 f1 5d 4e 3d d9 90 02 bd 86 97 bd bd d0 64 f8 bd
       0.05038256 -0.03187642 -0.092574164 -0.121286035
0003d0 55 b8 b3 bd d2 ec b7 bd 09 18 cd 3c eb 0c 71 bd
       -0.08775393 -0.08980717 0.025035875 -0.05885021
0003e0 f9 e3 bc 3d ec b1 16 be ad 1b eb 3c f8 6d b0 bd
       0.0922317 -0.1471631 0.02869972 -0.08614725
0003f0 49 50 9d bd 71 09 a9 3d fe 61 28 3d e0 8f 43 3d
       -0.07681329 0.08253754 0.041109078 0.04774463

levels.0.layers.1.0.conv.bias f4 [32]
000000 61 f3 ae 3d eb 31 f9 bc ae 60 1e 3d fc 9c ad 3c
       0.085425146 -0.03041931 0.03866642 0.02119302
000010 a7 78 b7 bd 28 c9 2c bd 44 a4 a2 bd 89 ea fb bd
       -0.089585595 -0.042184025 -0.079414874 -0.123005934
000020 83 62 14 bc 9b 18 d3 bd b5 95 a2 3d dd a6 9f 3d
       -0.00905669 -0.103074275 0.079387106 0.077954985
000030 42 33 a6 bc 3a 42 db bd 07 0b a6 3d c2 47 08 3d
       -0.020288114 -0.10705991 0.08107572 0.03327156
000040 2d 22 84 3d 83 0e f6 bd 67 e2 af bd 02 bc 5b bd
       0.06451831 -0.12014487 -0.08588105 -0.053646095
000050 6a c8 9d bd 6c f8 01 3d ef ba d7 3c ee 0a 13 bd
       -0.077042416 0.031731054 0.026334254 -0.035899095
000060 7d 3d 7c bb 74 76 63 3d 15 81 43 3d 05 5d e9 bd
       -0.0038488798 0.055532888 0.047730524 -0.11394695
000070 d3 13 2e bc de 22 81 3d 1e ac a8 3d 3b 17 94 bd
       -0.010624844 0.063054785 0.08235954 -0.07230993

levels.0.layers.2.0.conv.weight f4 [32, 64, 1]
000000 df 64 e2 3d ff 6f 1b be c9 99 0c be ca ca eb bd
       0.11054396 -0.15179442 -0.1373054 -0.11513288
000010 b3 a0 4a bd 59 90 ac bc cd b7 e7 bd e1 74 ce 3d
       -0.04946966 -0.021064924 -0.11314354 0.10080887
000020 65 46 17 be a1 e4 3f bd 29 a2 8b 3d 44 0a b8 bc
       -0.14772947 -0.046848897 0.06818039 -0.022465833
000030 9b 9a bc bd b2 5f 8e bd a6 10 11 3e 4c ec 02 3e
       -0.09209176 -0.06951846 0.14166507 0.12785453
000040 dc 0a e7 3c 94 8e b0 bc 9b e5 19 bd a7 0d e1 3b
       0.02820342 -0.021552362 -0.037572484 0.0068680826
000050 99 bb de 3d 9a 7b 03 3e d7 ad 53 bd 2c 27 c4 bc
       0.10875625 0.12840119 -0.05167946 -0.02394446
000060 dd 67 19 bd 71 dd 2b be 53 7a f7 3d b5 64 c6 3d
       -0.037452567 -0.16783692 0.12083878 0.09687177
000070 ad 20 be bd c1 e3 38 bd 9a 47 f6 3c f6 d9 35 3b
       -0.09283576 -0.045139078 0.03006344 0.0027748323
000080 c8 9e 9b 3d 53 21 70 bd 39 70 71 bd 1a d7 95 3d
       0.075986445 -0.05862553 -0.058944914 0.07316418
000090 52 99 36 3d f0 b6 c9 bd 33 fd f1 bc 92 35 f6 3d
       0.04457981 -0.09849346 -0.02953968 0.120219365
0000a0 85 a7 72 bc de 65 b1 3d 1b df 50 3a 18 ab 91 3d
       -0.014810448 0.08662008 0.00079678156 0.07112712
0000b0 a7 ea 39 3c e7 a1 1e bd 17 dc 83 3d 4a d0 b6 bd
       0.011347449 -0.03872862 0.06438463 -0.08926447
0000c0 15 9c 20 bd 15 c1 7a bb 7c c8 b7 bd 0e fe 58 bd
       -0.03921135 -0.0038262059 -0.08973786 -0.05297666
0000d0 3e a9 18 be 2c 89 e3 bd f9 df ac 3d 10 61 b6 bd
       -0.14908311 -0.11110148 0.08441157 -0.08905232
0000e0 fc 5d c8 bc b1 4a b3 3d 21 54 06 be ea 6c 24 bd
       -0.024458878 0.08754481 -0.1311803 -0.04014293
0000f0 c7 41 88 3d 29 6a 03 bd e2 e6 0e 3e 0f 1e a6 3d
       0.06653171 -0.032083664 0.13955262 0.08111202
000100 72 6c 64 3c 22 75 8a bc 3b e0 82 bd fa 57 a7 3d
       0.013941871 -0.016901556 -0.06390425 0.08171077
000110 b4 f1 e2 3d 1e 47 e2 3d bc f4 f4 3c 9e 82 c5 3d
       0.110812575 0.11048721 0.029901855 0.09644054
000120 9b 04 af bd ef c1 de 3b 8b f5 f7 3d e1 a3 f2 3d
       -0.085458 0.006798021 0.121073805 0.11847664
000130 13 76 90 3d 63 fe 9e 3d f3 10 c2 3d c5 12 a7 bd
       0.07053771 0.07763364 0.09475889 -0.08157877
000140 f5 77 6f 3d ce 52 dc 3d 54 4f cc bc b9 86 b9 bb
       0.05846401 0.10757981 -0.02494017 -0.005661812
000150 44 66 9d bd 8f 61 dc 3a 4c 12 8f 3d 4f 7d a9 bd
       -0.07685521 0.0016813743 0.06985912 -0.08275854
000160 22 52 20 3e 48 fd 1f 3d 5a f9 ef bc e8 a7 d3 bd
       0.15656331 0.039059907 -0.029293705 -0.1033476
000170 dc 2b a5 3d 7a b6 9a bc 66 27 8d 3d be d0 92 bd
       0.08065006 -0.01888584 0.0689228 -0.07168721
000180 b9 f1 2d bb 20 40 51 bd 3a ee 60 bd b4 00 9c 3d
       -0.0026541783 -0.051086545 -0.05491469 0.076173216
000190 31 2c a7 3d c4 54 f8 bd 08 54 00 3e e7 7e 0a 3e
       0.08162726 -0.12125543 0.12532055 0.13524972
0001a0 58 9c 98 bd bd b6 29 bd 1e 61 a3 bd 79 e3 3c bd
       -0.07451695 -0.04143404 -0.07977508 -0.046115372
0001b0 22 39 c8 bd 38 89 28 3e be 03 f6 bd 05 bf d1 bd
       -0.09776522 0.16458595 -0.120124325 -0.10241512
0001c0 b6 ef ae bd 49 43 84 bd e8 97 9d bd af a1 67 3d
       -0.08541815 -0.06458146 -0.076949894 0.056550678
0001d0 ca 33 14 be 50 a7 70 3c 85 8e ef bd 08 30 a5 3d
       -0.14472881 0.014688328 -0.11697105 0.08065802
0001e0 1d 20 58 bd 39 89 99 3b d9 da 7d bc 47 89 32 3d
       -0.052765 0.0046855477 -0.015494072 0.04358795
0001f0 a8 ff e2 3c 2c 3b 2e 3e ea 21 1e 3e fd 0b 38 3d
       0.027709797 0.1701476 0.15442625 0.044933308
000200 ae f9 2d 3c 3b 7b 36 bd 7e bd c1 bd 42 e4 db bd
       0.01061861 -0.044551115 -0.09459971 -0.10736896
000210 9d 78 8f bd 4b 18 c7 bd 64 1b 80 bd 7d ab ef bd
       -0.07005427 -0.097214304 -0.06255224 -0.11702631
000220 a6 1e 87 3d a2 46 b2 3d ba 82 be 3c 7b 08 dd 3b
       0.065976426 0.087048784 0.023255695 0.0067453957
000230 1f 12 f7 3d 10 20 c6 bd 10 63 f2 3d de df 12 be
       0.12064003 -0.09674084 0.11835301 -0.14343211
000240 5b 86 f4 3c 0f 28 41 bd 9c fa cd bd 8d 23 e6 3d
       0.029849222 -0.047157343 -0.100575656 0.112372495
000250 16 eb 9e bd 06 5c c1 3c 14 7d e0 3d da f4 63 3c
       -0.07759683 0.02360345 0.10961357 0.013913358
000260 52 4d 12 3d 04 ec 01 3d b0 30 d6 bd 68 2b 6c 3d
       0.03571827 0.031719223 -0.10458505 0.057658583
000270 33 64 89 bc 67 67 3d bd 32 03 b5 3d f8 af d9 bd
       -0.016771412 -0.04624119 0.088385 -0.106292665
000280 fa 20 e8 bd 8a c8 49 3b b4 13 b2 bd 4c c9 89 bc
       -0.11334415 0.0030789697 -0.08695164 -0.016819619
000290 af eb d3 bd d9 6f f5 3d ae 15 84 bd 64 b3 fa bd
       -0.103476875 0.11984224 -0.064494476 -0.12241247
0002a0 14 b8 c5 3d 0a dc 92 bc 30 c1 01 bb 7f e8 04 3d
       0.09654251 -0.017927188 -0.0019798987 0.032448288
0002b0 91 ab 89 3d 9d e1 56 bd 77 1d 4d 3c c7 a9 89 bd
       0.06722177 -0.052461255 0.012519232 -0.067218356
0002c0 2d 3b 35 be 0d 2d b4 bd 13 7d 87 bc ee 2d a9 bc
       -0.17698355 -0.08797655 -0.016539132 -0.020651784
0002d0 11 aa 45 3d 5b ee 71 bd 21 10 d4 3d 00 71 a6 3d
       0.04825789 -0.059065204 0.10354639 0.08127022
0002e0 6a 2c 4a 3e f8 42 63 bd 6c 96 a7 3c d3 40 96 3d
       0.19743505 -0.05548379 0.020457469 0.07336583
0002f0 8f d4 b2 3d d4 8c 1e bd 34 5c a2 3c 3b 60 67 3d
       0.087319486 -0.038708523 0.019819357 0.056488257
000300 a5 2d c3 3d fd 82 cc bd ae 87 27 be 49 6a ed 3c
       0.095301904 -0.099859215 -0.16360351 0.028981345
000310 76 0a af 3d 31 b9 8b bd d2 df 9f bd fe 77 b4 3c
       0.08546917 -0.06822432 -0.07806362 0.022029873
000320 17 45 b1 3d dd 39 be 3d 31 d3 56 3d 3c 07 56 3c
       0.08655756 0.0928838 0.0524475 0.013063248
000330 71 29 db bd 4f bd d9 bc 08 36 99 3d ed 0a cf 3d
       -0.10701264 -0.026579527 0.07481009 0.10109506
000340 fb 80 fd 3c 56 73 ff 3c ce a8 17 bd 46 60 69 3d
       0.030945292 0.031182926 -0.03702622 0.05697658
000350 7e f9 0b be 0c 38 a7 3c 03 d2 bf bc 29 d5 03 3e
       -0.13669392 0.020412467 -0.023415571 0.12874283
000360 f1 85 ea bd e1 2c 07 3d 63 b0 c4 3d 94 0c 11 3e
       -0.114513285 0.033001784 0.096039556 0.14164954
000370 01 85 c0 3d 0b 8b 0b be 6d f3 98 bd cf 62 f0 bd
       0.094003685 -0.1362726 -0.07468305 -0.11737596
000380 47 f4 c3 3d 7e 13 12 3c 01 bb 99 bd c7 e2 84 3d
       0.095680766 0.00891578 -0.07506371 0.06488567
000390 87 4e c7 3d 3a 78 b6 3c 7c 42 6b 3d 05 6d 6e 3d
       0.09731775 0.022274125 0.05743645 0.058209438
0003a0 cd cd ea bd 6a fe 8b bd 70 9f 0c 3e 95 0b 2b 3b
       -0.11465035 -0.06835635 0.13732696 0.0026099433
0003b0 52 47 92 bc 1d 6d 2a 3c f1 1c c8 3d 3b ff 0a bd
       -0.017856274 0.010401991 0.09771145 -0.033934813
0003c0 99 0b c1 bc f4 95 9c 3d 58 1d 9b bc 60 ac 65 3c
       -0.0235651 0.07645789 -0.01893489 0.014018148
0003d0 c2 a8 f9 bc 7a 56 18 bd 7a 66 2b be 2e 7e 64 bc
       -0.030475978 -0.037191845 -0.1673831 -0.013946099
0003e0 81 2f 9c bd 26 50 ac bd cf 77 3c 3d 06 82 cd 3d
       -0.07626248 -0.084137246 0.046012696 0.10034566
0003f0 03 f5 ea bd 1d b2 47 bd 38 70 32 bd e7 55 09 3d
       -0.114725135 -0.048753846 -0.04356405 0.03352919

levels.0.layers.2.0.conv.bias f4 [32]
000000 63 4e 36 3d 51 54 16 3a ee ba f4 3d ee a9 d1 bd
       0.04450835 0.000573461 0.119497165 -0.1023749
000010 36 c2 b0 bd fc 79 ec 3d 1e c3 a5 bd b4 f3 db bd
       -0.08630793 0.11546704 -0.08093856 -0.10739842
000020 be ce c3 bd b0 5d ad bd 50 3b d4 bd f7 44 8e bc
       -0.09560917 -0.08465135 -0.103628755 -0.01736687
000030 19 8c a9 3c 37 c2 ca bc 56 ea 66 bd d2 ad 37 bd
       0.020696687 -0.024750812 -0.056375824 -0.044843502
000040 7e eb 35 3b 40 80 3f 3d 52 ab 00 be df 83 fa 3d
       0.0027758772 0.046753168 -0.12565354 0.12232184
000050 f8 1b d5 3a 26 08 b0 3c 73 b2 51 bd 48 78 e1 3d
       0.0016258946 0.02148826 -0.051195573 0.1100927
000060 3a a1 85 3d df 95 88 bc 75 45 ff 3c 9f e7 5b bc
       0.06524892 -0.016673027 0.03116105 -0.013421922
000070 50 d5 15 3d 74 64 6e bd a2 41 b9 bc 20 9c 96 bc
       0.036580384 -0.05820127 -0.022614304 -0.018384993

levels.0.layers.3.0.conv.weight f4 [32, 64, 1]
000000 41 8f 20 be 48 d4 2e bd b7 a1 86 3d 29 c7 d4 bc
       -0.15679647 -0.042682916 0.065738134 -0.025973873
000010 79 fd 24 bd ee f8 90 bd 46 bc ac bd f6 30 fe bc
       -0.040280793 -0.070787296 -0.08434348 -0.031029206
000020 ec 33 a4 38 71 58 90 3d 33 24 2c bd f2 e0 dc bd
       7.8298006e-05 0.07048119 -0.04202671 -0.107850924
000030 69 8d 37 be 07 9d cf bd 4a 78 b4 bd 67 a9 8e bd
       -0.17925037 -0.101373725 -0.08812006 -0.06965905
000040 70 f4 86 bc 94 7f 45 bd 9e b2 82 3c e4 f4 b2 3d
       -0.016473979 -0.04821737 0.015954312 0.087381154
000050 47 8a 04 bd ea c7 82 bd f9 2f 41 bd 46 47 c1 3c
       -0.032358434 -0.06385787 -0.04716489 0.023593556
000060 cb 20 59 3d 71 3a 46 3d 15 fc 57 bd 7e f9 af bc
       0.05300979 0.048395578 -0.05273064 -0.021481272
000070 fc 66 be 3d a3 75 b6 3d 2f 8a 47 3c 02 a3 a0 3d
       0.092969865 0.08909156 0.012178942 0.07843591
000080 e6 ff 08 3d 57 ed d6 bc cf c9 bf bd 19 45 b5 3d
       0.03344717 -0.02623622 -0.09364664 0.0885107
000090 89 fe 29 be 51 d4 f4 3a bb 1e 26 3c b4 bd cc bd
       -0.16601004 0.0018678998 0.010139163 -0.099971205
0000a0 3c 08 25 be 83 cf 9d 3d cc 42 c5 3c a8 0c 06 bd
       -0.16116422 0.07705595 0.024079703 -0.032726914
0000b0 3d e4 07 bd ef d8 cb bd f6 b5 b3 3d 56 f5 ad bd
       -0.03317665 -0.09953486 0.08774941 -0.0849406
0000c0 e5 72 7f bd 4a 6f b8 3d 7a 39 a0 3d a8 7f bb 3c
       -0.06236543 0.09005602 0.07823463 0.02288802
0000d0 0e a6 f2 bd 02 af 33 bd ab 77 34 3b 8e 77 f7 bd
       -0.11848079 -0.043868072 0.0027537148 -0.1208335
0000e0 a9 35 45 be 7f 79 cb bd 98 22 08 bd aa cd ff bd
       -0.19258751 -0.09935283 -0.033236116 -0.12490399
0000f0 62 d7 95 bc 19 08 d5 3b f6 af 66 bd 3f c8 bd 3d
       -0.01829118 0.0065012095 -0.056320153 0.092667095
000100 cd 0f a5 bd 54 12 a9 bd fe e8 05 bd ac c1 b1 3d
       -0.080596544 -0.08255449 -0.0326929 0.08679518
000110 03 cb 0f bd 82 8d b6 bd 3b 7e 00 be 63 c7 14 3e
       -0.035105716 -0.08913709 -0.12548153 0.14529185
000120 85 7a c4 3d 21 eb ad bd 7c 41 7b bd 7e 83 16 bc
       0.09593681 -0.08492113 -0.061341748 -0.009186624
000130 de f0 4b 3d ee 3a f3 3d 76 b2 4f 3c 1b 25 91 bd
       0.049790256 0.11876474 0.012676826 -0.070871554
000140 45 36 58 bc 1f 9e 0e 3d 70 0e df 3c 7c 3c 9e bc
       -0.013196533 0.034818765 0.027228564 -0.01931595
000150 d8 91 94 bd ce 99 31 3d 32 f9 9a 3d e7 69 9b bd
       -0.0725438 0.04335957 0.075670615 -0.07588559
000160 76 2b 0f 3d 40 62 ef 3d d8 22 af bc 7b 60 c9 3d
       0.034953557 0.116886616 -0.02137892 0.09832855
000170 ba 34 e2 bc 28 8c bf bc 8e 11 11 3d 82 fc 57 bc
       -0.027613033 -0.023382261 0.035417132 -0.013182761
000180 0d ba 15 be f1 eb de bd a1 c6 30 bd e8 94 e0 3d
       -0.14621754 -0.10884846 -0.043158177 0.109659016
000190 ee 0e 5a 3c d3 35 1c bd 92 fc 12 bc f9 8b a7 bc
       0.013309224 -0.03813727 -0.00897135 -0.020452486
0001a0 16 41 92 3d 90 ee c1 3c 43 75 06 3d 4d d2 40 3e
       0.071413204 0.023673326 0.032826673 0.18830223
0001b0 c9 f0 33 bc 7d 84 76 3d bd 6e 29 3e 04 35 ce bd
       -0.010982701 0.060184944 0.1654615 -0.10068706
0001c0 85 3b 92 3d 18 b9 db bb 90 5f c5 3c a0 08 bc bd
       0.07140259 -0.0067054145 0.02409342 -0.091813326
0001d0 8d 60 e5 3c d4 3c 96 3d d0 4b e0 3c ec d2 9d bd
       0.02800014 0.07335821 0.0273799 -0.07706246
0001e0 36 b6 98 3d 16 f1 06 3e 9b 56 3b bc ac a9 8a 3d
       0.07456629 0.13177904 -0.011434223 0.067706436
0001f0 3f 7b 26 bb 58 46 8d 3d 10 a3 a9 bd 80 d9 33 bd
       -0.002540305 0.06898183 -0.08283055 -0.043908596
000200 8e 87 9d 3d 90 45 bc bd 80 f4 61 bd af 97 97 3d
       0.07691871 -0.091929555 -0.055164814 0.07401978
000210 ef f9 42 bd 12 a7 ae 3d 8a 89 32 bd 4a 5d 9c bd
       -0.047601636 0.0852796 -0.0435882 -0.07634981
000220 4e 22 9d 3d 3c be 7d bd e1 11 d9 bd ac 0e 12 be
       0.07672559 -0.061949 -0.10599113 -0.1426341
000230 15 e4 eb bd 3b 54 ff bb 26 db 97 3d e4 e1 60 3d
       -0.115181126 -0.0077920235 0.07414846 0.054902926
000240 d5 70 b1 bd f5 a7 a6 3b 3a 32 18 3d 20 30 4d 3d
       -0.08664099 0.00508594 0.037157275 0.050094724
000250 82 bf d7 bd 12 68 d5 3d 05 8e fc bc 0a 61 27 3e
       -0.10534574 0.104202405 -0.030829439 0.16345611
000260 84 fb 87 3d e7 fe bc 3d db 7b a5 bb 5b fe c2 3d
       0.0663977 0.09228306 -0.005050165 0.09521171
000270 c3 6c 04 be 41 90 b9 3c f9 25 b4 3d 31 16 40 3d
       -0.12932114 0.022651793 0.08796305 0.046896163
000280 78 e2 a3 bd c3 4e 10 3d c2 f9 e2 3c 7c 79 57 3d
       -0.0800218 0.035231363 0.027706984 0.05260609
000290 33 6e ec bc 45 08 cb bd 22 90 a1 bd 6e 83 3d 3e
       -0.02886114 -0.09913687 -0.07888819 0.18507168
0002a0 79 3d 6b bc 3a 34 c2 bd 34 b8 c1 bd c6 c5 2c 3e
       -0.014357918 -0.09482618 -0.09458962 0.1687232
0002b0 99 08 81 3c aa c7 c8 3c 5b 59 f7 3d 3b 67 33 3d
       0.01575117 0.02450927 0.1207759 0.04379962
0002c0 3a 06 be 3d 5a 97 3d bd 2c a3 d3 3d 29 41 86 3c
       0.092785314 -0.04628692 0.10333857 0.016388493
0002d0 92 2d 03 3d 9b 59 88 bd 66 52 94 3d 79 55 66 3d
       0.03202588 -0.06657716 0.07242279 0.056233857
0002e0 e2 27 c8 3d 5c 1f e1 3b 45 06 09 3e 52 42 a5 bc
       0.09773232 0.0068701934 0.13381298 -0.020173226
0002f0 34 48 36 3d 6b 22 da 3c 68 7c e6 bd 42 fd 8b bb
       0.044502452 0.02662774 -0.11254197 -0.004272134
000300 77 e5 1f bd e0 eb 01 be b1 8a 01 ba 57 77 3c 3d
       -0.039037194 -0.12687635 -0.0004941626 0.04601225
000310 57 f8 cc 3d f0 05 71 bd cc 59 2a bd 3c f2 14 3e
       0.100083046 -0.058843553 -0.041589543 0.1454553
000320 8b 7a ba 3d 11 13 11 be 24 25 cf 3d 8b 6c 15 bd
       0.091054045 -0.1416743 0.10114506 -0.036480468
000330 9c 37 92 bd 51 a1 3b bc 2c a3 72 3d 60 9a 27 3d
       -0.07139513 -0.011452035 0.059237644 0.040918708
000340 61 51 0f 3e 94 e5 b5 3d 31 e7 31 3c b4 bf 07 be
       0.13995887 0.08881679 0.010858343 -0.13256723
000350 50 84 a8 bd 7c 19 a2 3d 75 f1 e4 3d 01 45 24 3e
       -0.082283616 0.07915017 0.11178867 0.16041948
000360 7f ac c2 3d ec bd f3 3d 99 74 d9 bb a5 74 8d 3d
       0.09505557 0.11901459 -0.006636214 0.06907014
000370 c3 81 14 3e 76 e6 ee bd 39 f7 84 bd 43 1e a9 3d
       0.14502625 -0.11665051 -0.064924665 0.08257725
000380 fa 09 93 bd 22 4d 46 bd 1f 48 15 3d f3 20 e1 bd
       -0.07179637 -0.048413403 0.036445733 -0.10992613
000390 2d eb c6 bd af e2 b0 3c 62 5b 4a 3d 15 36 e9 3d
       -0.09712825 0.021592466 0.049403556 0.113872685
0003a0 b8 b3 a1 bd 98 79 e4 3d f0 6d 05 bd 2b 0d 33 3d
       -0.07895607 0.11156005 -0.032575548 0.04371373
0003b0 fb a6 b3 3d 63 f3 de 3d 04 8a 3c 3d 68 9c 69 bd
       0.08772083 0.10886266 0.04603006 -0.057033926
0003c0 e9 4b 7b 3c dc 13 66 bc 68 f7 f8 3d 40 e8 04 3e
       0.015337923 -0.014042821 0.12156564 0.12979221
0003d0 7d cd 5e 3d 67 d6 27 bd 22 ec e6 3d 3f 87 a9 3d
       0.054395188 -0.040975954 0.112755075 0.08277749
0003e0 35 d3 51 3d f8 a6 03 bd 90 d7 a7 3d ff 61 c8 3d
       0.051226813 -0.032141656 0.08195412 0.09784316
0003f0 51 1a 01 3d 06 61 09 bd 3b 94 e0 3c 4c d1 bf 3b
       0.031519238 -0.033539794 0.027414432 0.0058538076

levels.0.layers.3.0.conv.bias f4 [32]
000000 3e 23 0b 3d 49 e3 13 3e 1f 6a 01 be 4f c5 3f 3d
       0.033969156 0.14442171 -0.12638138 0.046819028
000010 43 82 e2 bd 31 53 28 bd e9 43 a1 bd 44 5c 74 3d
       -0.11060002 -0.041094963 -0.07874281 0.059658304
000020 d4 3d a2 3d 43 f7 e8 bc e5 b6 d3 bd e7 1d b3 bd
       0.07921949 -0.028438216 -0.10337619 -0.08745938
000030 92 b2 a1 3b 27 a9 c4 bd 36 1c ce bd 90 a7 e2 bc
       0.0049346173 -0.09602576 -0.100639746 -0.02766779
000040 34 a2 d6 bd 3a 7c 31 bd 8a 54 91 bd b0 e5 ca 3d
       -0.104801565 -0.043331362 -0.07096203 0.09907091
000050 d4 05 4e bc 8d 71 47 3d 26 49 bb 3d e7 35 55 3d
       -0.012574632 0.048692275 0.09144811 0.05205336
000060 bf d6 e2 bc da a6 95 3c a7 66 f4 bc 9f ca dd 3d
       -0.02769029 0.018268038 -0.029834105 0.108296625
000070 fe b8 8e bd a6 3c 5d bd 8b fc 56 bd d0 72 b9 bd
       -0.06968878 -0.054012917 -0.052486937 -0.09055102

levels.0.layers.4.0.conv.weight f4 [32, 64, 1]
000000 2f 6b fd bc f7 61 e8 3d 13 b7 8d 3d d1 5f 99 3d
       -0.030934898 0.1134681 0.06919684 0.07488979
000010 4c a5 d4 bb 61 17 ef 3d 48 3e 9f 3d 06 98 84 bd
       -0.0064894315 0.11674381 0.07775551 -0.06474309
000020 40 18 12 3e 45 ca 78 bd a6 9a 56 3d f4 c0 74 3d
       0.14267063 -0.060739774 0.052393578 0.059754327
000030 41 14 24 3e 39 6b 92 bd 12 d8 0a 3e df 3e 8a 3d
       0.16023351 -0.07149357 0.13558987 0.06750273
000040 9e 4f 0a bd cd b9 46 bb 96 4d 11 bc 3b 8a 99 bd
       -0.033767335 -0.0030323148 -0.008868596 -0.074970685
000050 fb b1 f0 bc 33 4b 2c 3d fd 1f ee 3c e2 38 81 bc
       -0.029381743 0.042063903 0.029067988 -0.015774194
000060 f5 2c ce 3c 34 67 82 3d cf 70 b4 bc 04 bd b6 bc
       0.025167922 0.06367341 -0.022026448 -0.022306927
000070 f3 c4 a6 bd 4e 2b 4e bd 0e 69 19 bd f6 a3 ac 3c
       -0.08143034 -0.050334267 -0.037453704 0.021074276
000080 a0 9a fc bd 4a a6 c7 bc 76 33 24 3d 83 34 96 3d
       -0.1233418 -0.024371285 0.04008814 0.073342346
000090 28 52 9a 3d 80 eb 2c 3d 5a dc d7 bc 73 3f e6 3c
       0.07535201 0.042216778 -0.026350189 0.028106427
0000a0 8b 56 eb 3d b3 1b c2 3d 63 41 48 3d 1f 37 5e bd
       0.11491116 0.094779395 0.048890483 -0.054251786
0000b0 c1 50 2e bd b4 59 a4 3d ec fd 14 3d c4 00 32 bd
       -0.04255748 0.08024922 0.03637497 -0.04345776
0000c0 e8 76 27 3e 6e 32 96 3d 66 e8 a1 3d fc 0c 3a bb
       0.16353953 0.073338374 0.079056546 -0.0028389087
0000d0 d4 43 9c bc 0e 5d 85 bd 41 09 06 3e 0b c4 8f bd
       -0.019075312 -0.065118894 0.13089468 -0.07019814
0000e0 a5 b0 ac bd c9 44 cb 3c 8b 86 ad bd 1f e4 d7 bd
       -0.0843213 0.024813073 -0.08472928 -0.105415575
0000f0 46 01 c6 3b 88 97 6c bd cb a4 f8 3d 5f 6d b5 ba
       0.0060426323 -0.0577617 0.12140807 -0.0013841799
000100 70 09 02 be d7 80 91 ba 67 53 ac 3d a4 5e 85 bc
       -0.12698913 -0.0011101019 0.08414345 -0.01628048
000110 86 e2 0d 3d d4 75 b3 bc ac 5c 43 bd 1c fc d2 bd
       0.034639858 -0.02190677 -0.0476958 -0.10301992
000120 d1 ef f9 3a 42 b8 37 3c 05 1c bf bd 74 ac 83 3d
       0.0019068663 0.011213364 -0.09331516 0.06429377
000130 45 46 c3 bd ad be 8f 3d 03 65 6b bd 06 6d d4 3d
       -0.09534887 0.070187904 -0.05746938 0.10372357
000140 64 3a 97 bd 35 f8 d4 bc b5 87 d0 bd fb d4 b5 bd
       -0.07384184 -0.02599726 -0.10182134 -0.088785134
000150 cf e9 39 3d 70 2e db bc 4d 18 bb bd 61 db 51 bd
       0.045388993 -0.026755542 -0.091354944 -0.051234607
000160 e9 93 00 3d 82 ff 2b 3d 42 60 ac 3d b8 4a bd bc
       0.031391058 0.041991718 0.08416797 -0.023106918
000170 cd 8e 90 3d 5f df 65 3d 7f 1d 2b bd b9 4e 47 3d
       0.07058487 0.056121226 -0.041776177 0.04865906
000180 a6 fc 7c bd 22 b8 43 bd c9 bc 92 3d a4 d4 05 be
       -0.06176438 -0.047783025 0.07164914 -0.13069397
000190 6b a1 b7 bd f0 5d f5 3d af a1 fd bd 2c a2 02 be
       -0.08966335 0.11980808 -0.12384354 -0.12757176
0001a0 e9 b6 bb bd e0 09 b6 3d 1d 23 06 be 33 25 1c 3d
       -0.09165747 0.08888602 -0.13099332 0.038121413
0001b0 d5 8e ce bb 01 d8 df 3d 12 50 7f bd 1e 04 b2 3d
       -0.006303648 0.10929871 -0.06233222 0.086921915
0001c0 28 e9 8f 3d cd de 5a be 52 da 79 3c 8a c7 96 bd
       0.07026893 -0.21374054 0.0152498055 -0.07362278
0001d0 de 8e d3 bd dd a3 a7 3c 7f b9 ff 3d 2e 77 f1 bd
       -0.10329984 0.020463878 0.124865524 -0.1179031
0001e0 38 19 01 3e 87 2e 19 be d0 72 d1 bd 68 a9 ed bd
       0.12607276 -0.14959155 -0.10226977 -0.11604577
0001f0 73 14 cd 3d cf d2 ef 3c ff d1 3c 3d 11 20 98 3d
       0.10013666 0.029275326 0.046098705 0.07427991
000200 54 63 b0 bd 0b 78 c6 bd e5 62 72 bc 13 d5 0a bd
       -0.08612695 -0.09690865 -0.014794086 -0.03389461
000210 a6 8a fc 3a 58 7f 06 be d0 48 61 3d a3 b6 1f 3e
       0.0019267395 -0.13134515 0.05500108 0.15597014
000220 b7 80 c9 3c 7d 3e 43 bc 11 55 95 bd bd 77 de 3b
       0.024597509 -0.011916754 -0.07291616 0.0067891763
000230 1c c4 cc bd ad 10 ed bd e8 ee 05 3d ea 74 e9 bd
       -0.099983424 -0.11575446 0.032698542 -0.11399253
000240 0f 7d c7 3d 56 fe 1f 3e eb e6 8e 3d 72 40 38 bb
       0.0974065 0.15624365 0.06977638 -0.0028114584
000250 47 f7 3d 3d ec d0 27 3d 9d 8f 99 bd 7d fa 21 bd
       0.0463784 0.040970728 -0.07498095 -0.039545525
000260 45 c3 76 bd 85 7c c1 3c 4c 7e 0e 3e 80 31 5e 3d
       -0.060244817 0.023618946 0.13915366 0.054246426
000270 17 b8 22 be 2a 4a 50 bd 76 c8 9f bc c5 a8 33 3d
       -0.15890537 -0.05085198 -0.019504767 0.043862123
000280 6c a4 ab 3d c5 32 a1 3d e9 58 5c 3d dc dd 8b bc
       0.0838097 0.07871012 0.05379573 -0.017073564
000290 75 ba e2 bd ff e7 37 bd 9f f9 f0 bd c1 9b 15 3d
       -0.1107072 -0.044898983 -0.117663614 0.03652549
0002a0 f3 69 da 3d 31 8d 3a 3d e1 59 b7 bd ae ea 26 3c
       0.106647395 0.045544807 -0.0895269 0.010187788
0002b0 bc 5d 04 3e 54 89 1b 3e 16 cd 75 3d 78 60 cb bc
       0.12926382 0.15189105 0.06001004 -0.024826273
0002c0 e5 77 15 bd 90 92 5b bd 79 66 6e bd 8d 2d 20 bd
       -0.036491293 -0.05360657 -0.058203194 -0.03910594
0002d0 c5 1b dd bd c5 25 94 bd 18 ad 15 3e 1a 63 0a be
       -0.10796312 -0.072337665 0.14616811 -0.13514367
0002e0 27 69 ae 3c 71 b9 21 be 17 22 d5 3d 47 31 55 3d
       0.021290375 -0.15793397 0.10406893 0.052048948
0002f0 a0 ef b5 bd f5 2e b3 bd 48 6d 95 3d b3 e0 75 bd
       -0.088835955 -0.08749191 0.07296234 -0.060028743
000300 93 6d 93 bb 6a 90 ae bb 8a aa ca bd 2b 3b cd 3d
       -0.0044991462 -0.005327274 -0.09895809 0.10021051
000310 a4 99 37 bd 05 a2 f8 bd ab 1b 9d 3d ec 3f 27 3d
       -0.044824257 -0.12140278 0.07671293 0.040832445
000320 db e1 4e bd 99 06 63 bd d2 0a 85 bd b7 25 3a bd
       -0.05050836 -0.055426214 -0.064962044 -0.045446124
000330 1f 76 d6 bd aa 02 58 bc 03 54 21 3d 1b 94 16 be
       -0.104717486 -0.013184229 0.03938676 -0.14704935
000340 5f 4e b2 3c 16 d4 46 3d bb 03 cd 3c 36 50 7b 3d
       0.021765886 0.048542105 0.025026193 0.061355792
000350 0c 8c 46 3d ec 7c f8 bd aa 7a df bc b4 06 43 3e
       0.048473403 -0.12133202 -0.02728017 0.19045526
000360 ec ae 24 be 65 3b a8 3d 1d 2d 16 3e 0f 24 91 bc
       -0.16082352 0.082144536 0.14665647 -0.01771739
000370 61 d6 31 bd 4b 2a 82 3d 3c 61 15 3e 98 0a 4a bd
       -0.04341734 0.06355723 0.14587873 -0.04932651
000380 ce fc c0 bd 53 98 71 3d 41 4c 1a bd 65 88 3d bd
       -0.09423219 0.05898316 -0.037670378 -0.046272654
000390 db eb 3a bd dd 81 e6 bc 50 c5 a1 bd 38 47 59 bc
       -0.045635086 -0.028138096 -0.078989625 -0.013261609
0003a0 2c 03 d8 bd 37 6b 7a bd 9d a1 df bd c9 4c a3 3d
       -0.1054748 -0.061137404 -0.10919497 0.0797363
0003b0 c0 68 81 3d 41 03 4b bc e1 c2 57 bd ad 60 43 3d
       0.063188076 -0.0123909125 -0.052676085 0.04769962
0003c0 97 74 99 3d 69 31 ed bd d3 8d 13 3d 59 f4 45 bd
       0.07492941 -0.1158169 0.036023926 -0.04832873
0003d0 9a c8 a7 3d 7e b5 a9 3c 4f 9c a4 bb 09 4e 49 3d
       0.081925586 0.020716425 -0.0050235162 0.049146686
0003e0 0f ce fe ba a9 7d 09 bc 5a 83 a7 3d 01 28 dd 3d
       -0.0019440072 -0.008391776 0.0817935 0.10798646
0003f0 31 57 08 3e 93 13 26 3d b5 da 5b bd 8a 88 ae bd
       0.13314511 0.04054601 -0.053675372 -0.085221365

levels.0.layers.4.0.conv.bias f4 [32]
000000 51 e9 00 3c 82 76 a4 bd 56 e4 ed bc 0d 9a 64 bd
       0.007868127 -0.08030416 -0.029039543 -0.055810977
000010 cd c8 3c bd 43 11 b9 bd bc 27 f0 3d f3 2e e0 3d
       -0.046089936 -0.090364955 0.11726329 0.10946455
000020 f6 e1 39 3c df 58 b2 3c c0 55 05 be 62 d0 e1 bd
       0.011345377 0.021770893 -0.13020992 -0.11026074
000030 04 42 b9 bd 50 30 a3 bd e2 dc 41 bd d0 bc 02 3c
       -0.090457946 -0.07968199 -0.04732979 0.007979587
000040 fa a2 8b 3d cd 06 e0 3d ed 21 80 3d a0 b6 87 3d
       0.06818195 0.10938797 0.06256471 0.0662663
000050 0c 6a d0 bd 7a 77 1c bd 6b bb bd bc f6 bb 8c 3d
       -0.10176477 -0.03819988 -0.023160657 0.06871788
000060 ed f9 96 bc c3 87 09 3e 59 f6 ac 3d 55 e4 a8 bd
       -0.01842972 0.13430695 0.084454246 -0.08246676
000070 52 6c 83 bd a6 66 ae bd 4f 97 75 3d 15 a7 5c 3c
       -0.06417145 -0.085156724 0.059958752 0.01346757

levels.0.layers.5.conv.weight f4 [3, 64, 1]
000000 75 45 2f bd 7b 73 71 3d 07 9a 45 bd 87 5a c6 bc
       -0.04279085 0.05894802 -0.048242595 -0.024213089
000010 1f c2 74 3b af c0 94 bc 53 8f da 3c b8 a1 79 bc
       0.003734715 -0.018158285 0.02667967 -0.015236311
000020 1b 18 1e bd f2 ec 89 3d 05 09 22 bd 46 7e 3f 3d
       -0.038597208 0.06734647 -0.039559383 0.046751283
000030 3e da aa 3c 73 9f b3 bc 0f 3a 02 3d 13 cf a8 bb
       0.02085602 -0.021926617 0.03179365 -0.0051516383
000040 37 22 1e 3c 46 ee e6 3c 65 8e 1b 3c 95 f6 88 bb
       0.009651712 0.02818979 0.009494399 -0.0041797855
000050 51 b9 0c bd cb 96 72 3d 83 f5 b7 bb 5a 9e 8a 3c
       -0.03435642 0.05922584 -0.005613984 0.016921211
000060 13 a4 19 3b 99 f4 f4 bb 7d 4d 30 bd 96 6b c6 bb
       0.0023443743 -0.0074754474 -0.04304265 -0.0060553057
000070 53 b0 29 3d a6 a3 c2 ba ed 30 13 bd f5 57 7d bc
       0.04142792 -0.0014849796 -0.03593533 -0.015462865
000080 8d 66 1d 3d 63 e6 1c bd 8d 27 33 3d 33 df 27 3c
       0.03842788 -0.03830565 0.04373889 0.010246086
000090 33 ae bd 3c d1 4a 62 3d 36 43 80 3c 5a 23 2d 3c
       0.023154354 0.05524713 0.015657049 0.0105675105
0000a0 0a 61 ce 3c 6c 0d d2 3c 1d ac f0 3c b3 bc 87 ba
       0.025192756 0.025641166 0.029378945 -0.0010355919
0000b0 89 7f 19 bd d5 e6 a3 3b f4 83 be bc d8 90 90 bc
       -0.037475143 0.0050018826 -0.02325628 -0.017647192
0000c0 08 b4 e9 3c f7 e8 6e bd 7d aa 20 bd 78 37 47 bd
       0.028528228 -0.05832764 -0.03922509 -0.048636883
0000d0 fa e8 49 bd 27 d6 a9 bb ff da a6 bc 8e df 05 bc
       -0.04929445 -0.0051829997 -0.020368097 -0.008170975
0000e0 7c 78 d0 bb 45 5b 12 bc 31 7e ae 3b de 23 e4 3c
       -0.006362019 -0.008932893 0.005325102 0.027849134
0000f0 a4 48 19 bd 27 d1 34 bc 79 d3 e9 3c 42 cd 22 bc
       -0.03742279 -0.011036194 0.02854322 -0.009936633
000100 4a 4c a7 bb 10 d0 37 bc 29 98 da bc 71 76 dc ba
       -0.00510553 -0.01121904 -0.026683884 -0.0016819966
000110 e7 83 43 3d db 5d 16 3d 67 ca 5a bc b0 c7 08 3c
       0.047733214 0.0367106 -0.013353921 0.00834839
000120 0d 74 31 3c a4 cc 2d bd 67 fc 89 3d 63 24 02 3d
       0.010830891 -0.04243149 0.06737595 0.031772982
000130 13 69 86 3b 9a e9 90 bc 0b 44 34 bd 0e 11 83 ba
       0.0041018813 -0.017689515 -0.044010203 -0.000999959
000140 11 c2 87 bc be f8 ee 3b 69 2a db 3c e1 4e 54 bc
       -0.01657203 0.007292836 0.026753621 -0.012958259
000150 ad 6b 14 bd e3 07 7c bc ea ad 42 3d 24 e3 b8 ba
       -0.0362355 -0.01538274 0.04752914 -0.0014105779
000160 8c a9 c8 bc 45 a9 37 3c 10 a3 aa bc c8 26 7a 3d
       -0.024494909 0.011209791 -0.020829707 0.06107214
000170 34 7e 8c bc 1d 8b 8d bb 35 85 85 bd 62 de a6 3c
       -0.017150022 -0.004319562 -0.06519548 0.020369712
000180 69 b9 c7 bc 1a 91 98 bc c7 e9 e0 bc 0a ea 34 3a
       -0.024380403 -0.018623877 -0.027455224 0.00069013296
000190 8b e3 08 bd 57 95 7b bd 70 bf 70 bc d0 68 0d bb
       -0.033420127 -0.06142172 -0.01469408 -0.0021577366
0001a0 1a 1f 52 3c d8 cb 36 3d 24 f3 43 bd f7 da 06 bc
       0.012824798 0.044627994 -0.0478393 -0.008230916
0001b0 78 9e a7 3c c6 66 a3 3c 91 43 c6 3c bb 19 98 bb
       0.020461306 0.019946467 0.02420214 -0.004641739
0001c0 f3 43 00 bc cd 09 91 3c fe 3b 67 bd 81 e8 f0 3c
       -0.0078287 0.017704869 -0.056453697 0.029407742
0001d0 a6 90 85 3c ed 8a aa 3c 16 15 3d bc 78 75 a6 bb
       0.016304325 0.020818198 -0.011540672 -0.0050799213
0001e0 93 ae c9 3c 2c 97 32 3b fe 42 44 3d c2 27 41 bd
       0.024619376 0.002725075 0.04791545 -0.047157057
0001f0 71 2a d4 3c 19 63 2e 3c 24 ca 1c 3d 3f 29 93 39
       0.025899144 0.010643744 0.038278714 0.00028068756
000200 d3 ff 97 3b f4 08 a8 3c 0c 95 c8 bc ca 01 e7 ba
       0.004638651 0.020512082 -0.024485134 -0.0017624435
000210 b6 b0 3f bd 58 30 38 3d 7f 5e a8 3c 51 7a 5d 3d
       -0.046799384 0.04496798 0.020552872 0.05407173
000220 8d df 5d bd 86 54 76 bb d3 14 07 3c de 30 96 3c
       -0.054168273 -0.0037587 0.008244711 0.018333849
000230 12 38 40 bd 98 07 17 bc 54 cd 46 3c 5d 95 ea 3c
       -0.046928473 -0.009218119 0.012133915 0.028635675
000240 a0 fb 4d 3d eb f2 1f bc a6 d7 23 3d 24 d0 5a ba
       0.050288796 -0.009762506 0.04000058 -0.00083470554
000250 c8 5a 5e bd 5c 39 5e bd bf 52 20 bd ff 1a 2d bc
       -0.054285794 -0.05425392 -0.039141413 -0.010565518
000260 2b a3 69 bb f2 69 8d bb aa 57 64 bc 53 cf ba 3b
       -0.0035650234 -0.004315608 -0.013936916 0.0057009845
000270 f6 07 2c 3c 89 f2 1d bc 27 85 a2 bb 06 b9 c1 3c
       0.010499945 -0.009640344 -0.0049597207 0.023647796
000280 bd 9a d4 bb fe 26 25 3b 06 a1 a8 3c 9f 74 dd bb
       -0.006488173 0.0025200243 0.020584594 -0.006758287
000290 bb 6e 1a 3d 7f d3 0c bc 37 14 27 3c f7 b5 e7 bc
       0.037703257 -0.0085953465 0.010197691 -0.02828501
0002a0 58 cb 73 3c 54 05 1e 3d b7 8d ec bb 9c 38 80 bb
       0.014880024 0.0385793 -0.007219042 -0.0039129984
0002b0 45 54 18 3d f9 8c b1 bc fa 3c 00 bc a2 ed 6f bc
       0.03718974 -0.021673666 -0.007827038 -0.014644058
0002c0 b5 7e 79 bc a2 3a 1b bd 3a 9c 61 bd c9 d7 f8 bc
       -0.015227963 -0.037897713 -0.05508063 -0.030376332
0002d0 a8 97 87 3c 21 42 7c 3d 9f f8 6f bb d6 7d c0 3c
       0.016551808 0.061586503 -0.0036616696 0.023497503
0002e0 ab 2a 97 bc de a7 55 bc 46 50 5b bc fd 09 89 3c
       -0.018452963 -0.013040511 -0.013385838 0.016728396
0002f0 7a 9c 96 3a fe 23 2b bb 8a 1f 20 3c 1a 10 d6 bc
       0.0011490725 -0.0026113982 0.0097731445 -0.026130725

levels.0.layers.5.conv.bias f4 [3]
000000 7b d8 a7 3d 92 2b c5 bb 93 35 3a bd
       0.08195587 -0.006017157 -0.04546125

levels.1.layers.0.0.conv.weight f4 [64, 4, 1]
000000 37 37 4b 3e e4 3e 02 bd 55 c7 92 be b3 e6 4a 3e
       0.19845282 -0.03179826 -0.28667703 0.19814567
000010 b2 ed 86 be 32 60 d8 be c4 5c 02 be 1a fa cc be
       -0.26353222 -0.4226089 -0.127307 -0.40034562
000020 0d dc 57 be 0c 88 b1 be b6 cf e1 be 23 fa fa 3c
       -0.21080036 -0.34674108 -0.44103783 0.030636853
000030 6b 16 d9 3d df a0 c6 3c 01 64 06 bd d9 d2 a9 be
       0.10599979 0.024246631 -0.032810215 -0.33168676
000040 0a c0 a1 be c7 7c 8f 3e 59 71 2f be 7f e1 db be
       -0.31591827 0.28024885 -0.17133082 -0.42945477
000050 0b f0 83 be c2 f3 97 3d f3 dc e5 be b2 11 9d 3e
       -0.25769076 0.0741954 -0.44895133 0.30677563
000060 c8 00 ac 3d c8 5b 1f 3e 06 77 9f be 05 5f b4 be
       0.083985865 0.15562356 -0.31145495 -0.35228744
000070 38 c1 91 be 75 33 59 bd 93 f6 2c be a4 ac bc 3e
       -0.28467727 -0.05302759 -0.16890936 0.36850464
000080 cd 9d c9 3c 9f f2 98 3e 05 9c 6a 3c 24 f5 5d be
       0.024611378 0.29872605 0.0143194245 -0.21675545
000090 64 51 c2 be f4 62 9a 3e 71 c3 c1 3d 1d a7 3d 3e
       -0.3795272 0.3015362 0.094611056 0.1852078
0000a0 4f f4 ea bd b4 df fe be 18 5c 1a 3e 67 f0 02 3c
       -0.114723794 -0.49780047 0.15074193 0.007991887
0000b0 75 f7 a9 3e 3d 62 92 be 1d ca b3 3e 65 99 bb 3e
       0.33196607 -0.28590575 0.35115138 0.36640468
0000c0 a7 ef dd be 17 8a d5 3e 2c 57 b8 3e 8f 64 dd bc
       -0.43346903 0.41706917 0.36004007 -0.02702549
0000d0 3a 26 09 bf cd e9 dd 3d 5f 4d 8e be 84 82 51 3e
       -0.53573954 0.108356096 -0.27793404 0.20459944
0000e0 34 75 42 3e 13 58 9e 3e 29 4f 83 3e b2 b4 69 be
       0.18990022 0.3092657 0.25646332 -0.22822836
0000f0 7b fa 67 bd f9 d0 86 be a2 b9 0f be 03 4d bf be
       -0.05663536 -0.26331308 -0.14035657 -0.37363443
000100 7c a9 97 3a c6 ba 9e bc 26 9a 9a 3d 28 d5 63 3e
       0.0011570896 -0.01937617 0.07548933 0.22249281
000110 b4 68 a7 3e ec 75 cd 3e fb 6d fa 3e 12 49 8a be
       0.3269707 0.4012903 0.48912033 -0.27008873
000120 dc 1e be be 9e 45 dc 3e ec 22 cb be cc 00 09 bf
       -0.3713292 0.43021864 -0.3967508 -0.5351684
000130 3f ae 95 3e 65 bb d7 bd 2c e0 96 3e f8 c4 18 3e
       0.29234502 -0.105337895 0.29467905 0.14918888
000140 4e ca 50 3e 43 c4 ab be d0 ab 4c 3e f4 9f 07 3d
       0.20389673 -0.33548173 0.19987416 0.033111528
000150 9f 76 8a be db 4e 8b 3e 7a d9 18 bd 30 51 a2 3e
       -0.27043626 0.272086 -0.037316777 0.31702566
000160 cf 79 79 be a9 51 97 be 26 22 be 3e ff 81 e5 3e
       -0.24362873 -0.2955449 0.37135428 0.44825742
000170 75 ad d3 3e 42 fa d4 be 1c 5d eb 3d 4b a6 81 3e
       0.41343275 -0.41597182 0.114923686 0.25322184
000180 a2 fe 99 3d 28 1d 9b 3e a7 b4 86 be d4 bb 9b be
       0.075192705 0.30295682 -0.26309702 -0.3041674
000190 bf 52 08 3f c6 7c c1 3d c4 74 bf be 1e d1 e4 3d
       0.5325126 0.09447627 -0.37393773 0.111726984
0001a0 ba 50 3e be 85 fd 71 be 68 a5 ff bd 47 89 a8 be
       -0.18585482 -0.23631866 -0.124827206 -0.32917234
0001b0 78 29 6e 3e 44 6a e5 be f8 68 1b be ee c9 d9 3c
       0.23258007 -0.44807637 -0.15176761 0.026585545
0001c0 0c 03 35 3e 0a d0 d2 bd fa a8 87 3e 63 82 ad 3e
       0.17676944 -0.102935866 0.26496106 0.3388854
0001d0 29 39 84 3e a2 b7 81 bd 7e 3f 0a 3e 7b 00 a5 3e
       0.2582486 -0.06333853 0.13500783 0.3222693
0001e0 18 4f a8 be 38 8a c3 be 3c cc ae 3e b7 ff f9 3e
       -0.32872844 -0.3819139 0.34140193 0.48827907
0001f0 c6 0c d3 3c 6a 09 af 3e b0 f7 24 be c6 f5 92 bd
       0.025762927 0.3418687 -0.1611011 -0.07175784
000200 16 e5 3a 3d 5b 03 4e 3e 60 b8 99 be 3c f4 4c be
       0.04562863 0.20118468 -0.3002348 -0.20015043
000210 4c b0 73 3e b9 95 19 3d d5 27 95 be f2 fc 2f 3e
       0.2379772 0.037496302 -0.29131952 0.17186335
000220 1f 70 54 3e 65 40 35 be 82 c0 85 3e cd 59 c9 3e
       0.20745896 -0.17700346 0.26123434 0.39326325
000230 f9 11 1c be c9 c6 60 3e be 8f ea be b3 72 04 be
       -0.15241231 0.2195083 -0.45812792 -0.1293438
000240 8b e2 02 3f c6 dc 4a 3e bc 5f 4b 3e 3a f0 19 3e
       0.5112693 0.19810781 0.19860739 0.15033045
000250 46 db 92 be 37 49 86 3e a2 69 a0 3d 1b c0 1c 3e
       -0.28682917 0.26227733 0.07832648 0.15307657
000260 53 6b 69 bd 73 57 22 3d 25 1d d0 be 11 35 18 3d
       -0.056987118 0.03963418 -0.40647236 0.037159983
000270 a4 4f f6 be 5b 84 f5 3e d9 5a e0 3e d3 fd 85 3e
       -0.48107636 0.47952542 0.4381931 0.26170215
000280 14 da c2 be 9f ec 80 be a6 44 54 be 55 02 d9 3e
       -0.38057005 -0.25180528 -0.20729312 0.42384592
000290 8b 0d cc bd d1 32 e1 be 06 b7 45 3e 5f 06 17 3e
       -0.099635206 -0.43984082 0.19308099 0.14748524
0002a0 d2 21 82 be cc bd 99 be 83 c0 56 3e 63 86 e7 3e
       -0.25416428 -0.30027616 0.20971875 0.45219716
0002b0 5a ad a2 be 84 96 da be 56 f9 41 3e 7d 4f 56 be
       -0.31772882 -0.4269296 0.1894277 -0.2092876
0002c0 e3 ae 56 3e c9 ae a3 bd f4 fd a0 be 66 9e e3 3e
       0.20965151 -0.07992322 -0.3144375 0.44456786
0002d0 3a af 6a 3d 60 49 cd be 27 db d4 be 5a d4 28 bc
       0.057296015 -0.40095043 -0.4157345 -0.010304535
0002e0 87 b3 c0 be 04 cd 61 3e 26 ea 13 3e b9 eb 7b 3d
       -0.37636968 0.22050864 0.1444479 0.0615041
0002f0 0d e8 63 3a 58 b6 ef 3e 8d 59 43 3c af 46 c8 3e
       0.0008693941 0.46818805 0.011923206 0.39116427
000300 c3 0e 2a 3d 58 b0 70 be 2a 90 83 be d6 3e fd 3d
       0.041517984 -0.2350477 -0.25695926 0.12365501
000310 f5 57 49 be 22 fe 9d 3e ed bc dc bd 80 1e fb be
       -0.19662459 0.3085795 -0.10778222 -0.49046707
000320 ec cc 84 3e 6c 02 ec 3c ae 29 74 3e 10 9a 97 3e
       0.25937593 0.028809749 0.23844025 0.29609728
000330 43 65 27 be 6b b8 ce 3e 49 58 e0 be ad 49 b0 3d
       -0.16347222 0.40375075 -0.43817356 0.086078025
000340 07 16 f1 3e 6d 03 a4 be 63 bc 55 be 1c 01 53 be
       0.47087118 -0.32033864 -0.20872645 -0.20605892
000350 8f 1c 97 bd c9 ef 88 be cc f7 e2 3e b7 1c d0 3d
       -0.07378494 -0.26745442 0.4432968 0.10161727
000360 9e ec 90 3e c2 bb 11 bf 5e ee da 3e 0d 4b bf be
       0.28305525 -0.5692712 0.42759985 -0.37361947
000370 0c 2d 2a be 73 7d 8c 3e 02 76 95 3d e6 23 c6 3e
       -0.16618747 0.2743946 0.07297899 0.38699263
000380 75 d0 1f be 03 8b 32 3e d5 51 6e 3e 18 38 ed be
       -0.15606864 0.17435841 0.23273404 -0.4633186
000390 d9 a4 3d 3e 51 cd 07 3f aa a4 cc 3e 31 e9 6a be
       0.18519916 0.5304766 0.3996938 -0.22940518
0003a0 be a6 47 3d 1c 1a 6d be 9e b0 58 bc 42 50 ba be
       0.048743002 -0.23154491 -0.013225703 -0.36389357
0003b0 c6 d1 d6 3e 5c 91 92 3e a3 af 79 be e7 68 90 be
       0.4195692 0.28626525 -0.24383406 -0.28205034
0003c0 29 21 83 3e f4 f3 26 3e a0 5a b0 3e c6 85 aa 3d
       0.25611237 0.16303998 0.3444414 0.083262965
0003d0 4e bf 58 3e a1 e4 5a 3e 8d 06 8b 3d 74 9d b3 bd
       0.21166727 0.21376278 0.06788359 -0.08770266
0003e0 01 7b bf be 55 17 6c 3e 2c e7 07 bf 5f bd a6 3e
       -0.37398532 0.23055775 -0.53087115 0.32566354
0003f0 86 50 cf be 55 d7 3f 3e f3 c0 a3 3e 32 fe cb be
       -0.40491122 0.18734486 0.31983146 -0.39842373

levels.1.layers.0.0.conv.bias f4 [64]
000000 9e af bc 3c 78 6b 22 3e 0e d5 65 3d 1b 6a 99 be
       0.02303296 0.15861309 0.056111388 -0.29963765
000010 07 90 64 be 1f 12 d6 3e 28 14 01 be 68 37 8c 3e
       -0.22320567 0.418107 -0.12605345 0.27386022
000020 a5 d8 f9 be 66 24 e7 3d 4b 1d 9a be 37 ca a2 be
       -0.487981 0.11286239 -0.30100474 -0.31794903
000030 18 b0 a0 3e b3 cd 5d be e6 6d 5e be 20 8b e5 3d
       0.3138435 -0.216605 -0.2172161 0.112081766
000040 d0 d0 84 3e 47 7f 41 bd 1e a5 9e 3e 7d 40 c7 be
       0.2594056 -0.04724052 0.3098535 -0.38916388
000050 27 0a b7 be fd 41 5a bb 04 d8 af be 24 ba c0 be
       -0.35749933 -0.0033303492 -0.34344494 -0.37642014
000060 95 a0 9d be e6 9d a6 3e fd a2 59 bc ae 37 2d be
       -0.30786577 0.32542342 -0.013283488 -0.16915771
000070 f7 df 85 be af c6 cb be ad 02 23 3e 8a fc 60 3e
       -0.26147434 -0.3980002 0.1591899 0.21971336
000080 e0 94 da be 19 bd a5 be f1 d5 e3 be a9 62 d4 3d
       -0.42691708 -0.32370833 -0.44499162 0.103703804
000090 df 74 d6 3e b1 47 34 3c da 0f 80 3c d8 1f 3e be
       0.4188604 0.011003421 0.015632559 -0.18566835
0000a0 13 52 96 3e aa 2a 42 3e 05 6b 74 be f5 cb f6 bd
       0.29359493 0.18961588 -0.2386895 -0.120506205
0000b0 05 26 9b bd 9b 5a d1 be fc ab dd 3e 7c f9 d6 be
       -0.07575611 -0.4088944 0.43295276 -0.41987216
0000c0 cd fc 0f be 0a e0 fe bd 49 c5 e5 be 75 8d c8 be
       -0.1406128 -0.12445076 -0.4487708 -0.39170423
0000d0 23 1c 31 3d 62 5a c3 3e db 2a e0 3e 08 4a 54 3e
       0.043239724 0.38154894 0.43782696 0.20731366
0000e0 ac 73 f2 be 1d 8e 87 bd ee aa e9 bd 3b 20 cd be
       -0.47353876 -0.06618903 -0.114095554 -0.40063652
0000f0 40 13 37 3e c8 89 70 be 41 d4 d8 3e 66 77 bf be
       0.17878437 -0.2349006 0.42349437 -0.3739578
