checkpoints/comb_spike_ball_demo/SingleMeshDiscriminator_recover2.pth (torch, 513739 bytes, 66 tensors)

levels.0.layers.0.0.conv.weight f4 [32, 4, 1]
0	0xbe86f711	-0.26360372
1	0xbd995480	-0.0748682
2	0xbf08958a	-0.5335318
3	0x3dcd4e3e	0.10024689
4	0x3ec83511	0.39102986
5	0x3ead5663	0.3385497
6	0xbd145e0f	-0.036222514
7	0xbe42ab1c	-0.19010586
8	0xbeeaf5f9	-0.45890787
9	0x3e8433a5	0.25820652
10	0xbe44980f	-0.19198631
11	0x3e2fa6df	0.171535
12	0x3df4d6d7	0.1195504
13	0xbe8f955d	-0.28043643
14	0x3c707db0	0.014678404
15	0xbe2f4f10	-0.17120004
16	0x3eb5fdb4	0.35545123
17	0x3ee47526	0.44620627
18	0xbe2e9ec1	-0.17052747
19	0x3e92473e	0.28569978
20	0xbeebb147	-0.4603369
21	0x3ebea698	0.37236476
22	0x3e74f576	0.23921761
23	0x3ed0d71f	0.40789124
24	0x3e838d68	0.25693822
25	0xbcc2a6a7	-0.023761107
26	0xbf065b6f	-0.52483267
27	0xbdae5309	-0.085119314
28	0x3c8cb789	0.01717736
29	0x3e4c4317	0.19947468
30	0xbedf49c7	-0.43610975
31	0xbec57d56	-0.38572186
32	0xbec4f48e	-0.3846783
33	0xbe8793ab	-0.2647985
34	0xbe9148d9	-0.2837589
35	0x3eb98613	0.36235103
36	0x3ec9a2a3	0.39381894
37	0x3f051eef	0.52000326
38	0xbe5f447b	-0.21803467
39	0xbe613c63	-0.21995692
40	0x3cb28b5b	0.021794965
41	0x3dbd2afa	0.09236713
42	0xbeb4a3ca	-0.3528121
43	0xbe1ba43d	-0.1519937
44	0x3d979f06	0.07403378
45	0xbeb42500	-0.3518448
46	0x3efe9608	0.4972384
47	0xbeb17a3e	-0.34663576
48	0x3e1c2e83	0.15252118
49	0xbea04d0b	-0.3130878
50	0x3eff1d4e	0.49827045
51	0x3e6c891e	0.23099181
52	0x3e6df13a	0.23236552
53	0xbdd26a00	-0.10274124
54	0x3eadac4a	0.3392051
55	0x3d9a93c7	0.075477175
56	0xbde3923a	-0.11111875
57	0x3f031538	0.5120425
58	0xbe47f44d	-0.19526787
59	0x3ea7b30c	0.3275379
60	0xbd98272d	-0.07429347
61	0x3b8f0e24	0.0043656994
62	0x3eae75b8	0.34074187
63	0x3e9ce644	0.3064443
64	0xbe398d5a	-0.18120328
65	0xbdacae2d	-0.08431659
66	0x3e2097c5	0.15682895
67	0xbecfeef7	-0.40612003
68	0x3e9476d7	0.28996918
69	0x3ea15c97	0.31515953
70	0x3de7f160	0.113253355
71	0xbe006a19	-0.12540473
72	0xbf1283b6	-0.57232225
73	0x3e95b387	0.2923853
74	0x3ec17be4	0.37789834
75	0xbc9a6052	-0.018844757
76	0x3eca0543	0.3945714
77	0xbea3097b	-0.3184317
78	0xbee66773	-0.450008
79	0x3ea50fb8	0.32238555
80	0x3ebd02fe	0.36916345
81	0xbebe917b	-0.37220368
82	0x3ce7c03e	0.02828991
83	0x3f077acb	0.5292174
84	0x3eb58c87	0.35458776
85	0xbe2c3f60	-0.1682105
86	0x3df54c91	0.119774945
87	0xbef9ccb8	-0.48789
88	0xbec45668	-0.38347173
89	0x3f02cf2e	0.5109738
90	0x3db6d1fa	0.089267686
91	0xbea140f6	-0.31494874
92	0x3d5cdc5a	0.05392108
93	0xbcb2ac33	-0.021810627
94	0x3ed56497	0.41678306
95	0xbe8c950b	-0.2745746
96	0x3efe4826	0.4966442
97	0xbe608d9b	-0.21929018
98	0x3e2f593b	0.17123882
99	0xbe9cafb5	-0.30602804
100	0xbec72a61	-0.3889952
101	0xbe5cae4c	-0.21550864
102	0xbdca3ba1	-0.098746546
103	0xbe7dec91	-0.24797274
104	0x3e82bb5d	0.25533572
105	0x3dd45176	0.103671
106	0x3dbcb70e	0.092146024
107	0x3d0cfde4	0.034421816
108	0x3e864598	0.2622497
109	0x3eed231e	0.46315855
110	0xbf00a93d	-0.5025824
111	0x3e4c06c5	0.19924457
112	0xbdb6cee2	-0.089261785
113	0x3d0bc34d	0.0341218
114	0xbe40024d	-0.18750878
115	0xbea06d76	-0.31333512
116	0x3e1d29da	0.15347996
117	0x3e096f45	0.13421352
118	0x3ad5a731	0.0016300437
119	0xbeef859a	-0.46781617
120	0x3d9f68f0	0.07783687
121	0xbeaee458	-0.34158587
122	0x3e74ecd2	0.23918465
123	0xbca98d6b	-0.020697316
124	0x3e52d113	0.20587568
125	0xbe174d53	-0.1477559
126	0x3e7f4c3e	0.24931428
127	0xbe151719	-0.14559592

levels.0.layers.0.0.conv.bias f4 [32]
0	0x3ec8cd1a	0.3921898
1	0x3eeb2f12	0.4593435
2	0xbe5007cf	-0.20315479
3	0x3ed07ea9	0.40721634
4	0xbe182b46	-0.14860258
5	0xbe299af9	-0.16563024
6	0xbece1841	-0.4025288
7	0x3ec5897d	0.38581458
8	0xbe9a6d7b	-0.30161652
9	0xbdfd71c0	-0.12375212
10	0xbe82220d	-0.25416604
11	0x3e18913d	0.14899154
12	0xbc9d0517	-0.019167466
13	0xbeebe498	-0.4607284
14	0xbe94ddea	-0.29075557
15	0xbe64dbcc	-0.22349471
16	0xbef53107	-0.47888967
17	0xbe760fa5	-0.24029405
18	0x3dfc6e44	0.12325719
19	0xbef53a24	-0.4789592
20	0xbe2776fe	-0.16353986
21	0xbeaf7504	-0.34268963
22	0xbe5fb4ea	-0.21846357
23	0xbe859aab	-0.26094565
24	0x3e242645	0.16030224
25	0xbecbe57a	-0.39823514
26	0x3c0a9c56	0.008460125
27	0xbabca0fa	-0.0014391236
28	0x3ead585f	0.33856484
29	0xbcc57d98	-0.02410774
30	0xbe7bd025	-0.2459112
31	0xbd975786	-0.07389741

levels.0.layers.1.0.conv.weight f4 [32, 64, 1]
0	0x3da57d85	0.080805816
1	0x3da9e031	0.08294714
2	0xbd0154ea	-0.03157512
3	0xbcb6fd39	-0.022337543
4	0xbd3772dc	-0.044787273
5	0xbbb10939	-0.0054027108
6	0x3d2b0e31	0.04176158
7	0xbd754d41	-0.05988813
8	0x3cbe34bf	0.02321851
9	0xbdb873db	-0.09006473
10	0x3ce13251	0.027489813
11	0xbd4eac6d	-0.050457407
12	0x3d8e8926	0.06959753
13	0x3ddafd1d	0.10692809
14	0x3c80930e	0.015695121
15	0xbdb83e06	-0.08996205
16	0xbe0200b0	-0.12695575
17	0xbcd3e0a7	-0.025863959
18	0xbcc754d1	-0.024332436
19	0x3d39cff5	0.04536434
20	0xbd853f21	-0.065061815
21	0x3c222093	0.009895462
22	0xbd9d800a	-0.07690437
23	0xbda1d871	-0.07902611
24	0xbd007179	-0.031358216
25	0xbc7f6258	-0.015587412
26	0x3de0fb05	0.10985378
27	0xbc3eb61c	-0.011640098
28	0x3dc53faf	0.09631287
29	0xba22d2ec	-0.00062112394
30	0x3c505e8c	0.012717854
31	0xbd079eb0	-0.03311032
32	0x3dd43fd4	0.10363737
33	0xbe264deb	-0.16240661
34	0xbd5ab54b	-0.05339555
35	0xbdeac90e	-0.114641294
36	0x3d9fbf5b	0.0780017
37	0xbca9f956	-0.020748775
38	0xbdb0efa7	-0.0863946
39	0xbd1eb9c5	-0.038751382
40	0x3df48ea2	0.119412675
41	0x3cc75edc	0.024337225
42	0xbb665ed2	-0.0035151732
43	0xbc69b1cd	-0.014263582
44	0x3df66b6f	0.1203221
45	0xbd82d3d5	-0.0638806
46	0x3b151924	0.002275058
47	0x3dc945f4	0.098277956
48	0xbc7de5d6	-0.015496692
49	0xbbd59d26	-0.0065189777
50	0x3df3236d	0.11871991
51	0x3a8ced8c	0.0010751947
52	0x3d511907	0.05104926
53	0xbd7cc567	-0.061711695
54	0xbdbdda79	-0.09270186
55	0xbdf49aae	-0.11943565
56	0xbe638258	-0.22217691
57	0x3c5235b9	0.012830191
58	0xbd4a32e5	-0.049364943
59	0x3d5d785e	0.05406987
60	0x3dae267e	0.085034356
61	0x3b74ba8d	0.0037342638
62	0xbd317d45	-0.043332357
63	0xbdf9cff6	-0.121978685
64	0xbdab492c	-0.08363566
65	0xbd2723f0	-0.040805757
66	0xbd5dab56	-0.054118477
67	0xbdecfbd6	-0.115714714
68	0x3d805404	0.06266025
69	0x3d0de7e6	0.034644984
70	0x3dacfd27	0.084467225
71	0xbda26e08	-0.07931143
72	0xbd02fc80	-0.031979084
73	0x3d8f2ef7	0.0699138
74	0xbc570503	-0.0131237535
75	0xbdad66d6	-0.0846688
76	0x3cdb4800	0.02676773
77	0x3cc63e00	0.024199486
78	0xbdcbbccc	-0.099481195
79	0x3dd1f4a0	0.10251737
80	0xbc53f3c1	-0.012936533
81	0xbdc9aa67	-0.09846955
82	0xbe2ecbd8	-0.17069948
83	0x3d806f65	0.06271247
84	0xbb8c1b35	-0.0042757043
85	0x3dc61e2e	0.09673725
86	0xbe6b3b1b	-0.22971766
87	0xbcf49d94	-0.029860295
88	0x3dba64c8	0.09101254
89	0xbd2787f6	-0.040901147
90	0xbdabc9d7	-0.08388107
91	0xbc53fe1f	-0.012939005
92	0x3d721a8a	0.05910734
93	0xbd599b66	-0.053126715
94	0x3e047446	0.1293498
95	0xbd3b9fa0	-0.045806527
96	0x3da17953	0.07884469
97	0xbcebe805	-0.028797159
98	0xbce98966	-0.0285079
99	0x3d919bb2	0.07109775
100	0xbd89ac47	-0.067223124
101	0x3db4eba5	0.08834008
102	0xbd6bb440	-0.057544947
103	0x3ca4a8e4	0.020100065
104	0xbcea49f7	-0.028599722
105	0x3d9aad1c	0.07552549
106	0xbd30c889	-0.043159995
107	0x3d92206d	0.07135091
108	0x3dd49701	0.10380364
109	0x3d9722aa	0.073796585
110	0xbcbc45df	-0.022982536
111	0x3e007c45	0.12547405
112	0x3cb43def	0.022002188
113	0x38329cba	4.258447e-05
114	0xbbcb2f1f	-0.0062006856
115	0xbda30ebd	-0.079617955
116	0x3e007d6e	0.12547848
117	0x3d5b5e5e	0.053556792
118	0xbdba3ba5	-0.090934075
119	0xbe0f9e98	-0.14025342
120	0x3dd9fc19	0.10643787
121	0xbdf8a4dc	-0.121408194
122	0xbda112a8	-0.078648865
123	0xbd4c94fe	-0.049946778
124	0xbd9e6233	-0.07733574
125	0x3db767df	0.08955359
126	0x3d151af9	0.036402676
127	0xbd652ece	-0.05595284
128	0x3d627455	0.055286724
129	0xbc623765	-0.013807152
130	0xbdbaad4d	-0.09115086
131	0x3b500170	0.0031739138
132	0xbcc7d674	-0.024394251
133	0x3c819cbc	0.015821807
134	0xbd76b3b8	-0.060229987
135	0xbb9a9cea	-0.0047184126
136	0x3b7963f7	0.0038053968
137	0x3d8de7b4	0.069289595
138	0x3dd8bb9b	0.10582658
139	0xbdbbba76	-0.09166424
140	0x3d627a2a	0.055292286
141	0xbd0c93a3	-0.034320485
142	0xbd79262f	-0.06082743
143	0xbd85f0dc	-0.06540081
144	0xbe01c1d5	-0.12671597
145	0xbdd57967	-0.10423546
146	0xbcd41da7	-0.025893046
147	0x3d367ed6	0.044554554
148	0x3d3f8a3f	0.0467627
149	0x3d8b29cf	0.06795084
150	0xbd882cf6	-0.066492006
151	0x3d4295a7	0.047506
152	0x3d5c2b8c	0.053752467
153	0xbd9c2761	-0.076246984
154	0x3db7130e	0.08939181
155	0xbd3abd71	-0.04559082
156	0xbdf10617	-0.1176874
157	0x3d64dfaf	0.055877384
158	0xbc56743b	-0.013089235
159	0xbc53632c	-0.012902062
160	0x3dead9a9	0.11467297
161	0x3c825b31	0.015912624
162	0xbcb5fe18	-0.022215888
163	0xbd795dbb	-0.060880404
164	0xbda8f4ee	-0.08249842
165	0x3ddd5a95	0.10808293
166	0x3dfd7f1d	0.123777606
167	0xbd1a6eb5	-0.037703235
168	0x3db15d87	0.08660417
169	0xbe0a391d	-0.1349835
170	0x3e00ae28	0.12566435
171	0x3cab1939	0.02088605
172	0x3c046bef	0.008082374
173	0xbdd34050	-0.10315001
174	0x3daedc14	0.0853807
175	0x3e1718fd	0.14755626
176	0x3ca6cfe2	0.020362798
177	0xbdb9cf2a	-0.090727165
178	0x3c9a0007	0.018798841
179	0xbdf7945a	-0.12088843
180	0xbd2c9408	-0.04213336
181	0x3d1d1ea7	0.03835931
182	0xbe18e020	-0.14929247
183	0x3cb9c49d	0.02267676
184	0xbdc30917	-0.09523218
185	0x3da6d7fd	0.08146665
186	0xbd85664f	-0.065136544
187	0x3db81320	0.08988023
188	0xbda1e533	-0.079050444
189	0xbd5115c6	-0.051046155
190	0x3cb611ea	0.022225339
191	0x39f299e8	0.00046272506
192	0xbcac594e	-0.021038678
193	0x3c7b9f9c	0.015357878
194	0xbd807615	-0.06272522
195	0xbdead69f	-0.11466717
196	0xbc11983e	-0.008886395
197	0xbdd21ad9	-0.10259027
198	0xbd53de05	-0.051725406
199	0xbdb19b4a	-0.08672197
200	0x3d845173	0.06460848
201	0xbc59d13c	-0.013294514
202	0x3cfa243b	0.030534854
203	0xbba49a90	-0.005023308
204	0xbdd308dc	-0.10304424
205	0x3d32cd3c	0.043652758
206	0x3b538460	0.0032274947
207	0x3d2ac4e7	0.041691687
208	0x3d7b87fc	0.06140898
209	0xbab36408	-0.0013686428
210	0x3e1b91f6	0.15192398
211	0x3dcb8752	0.0993792
212	0xbdaa0b6b	-0.08302959
213	0x3df4ad1f	0.11947083
214	0x3ce959a9	0.028485136
215	0x3d0ab372	0.03386254
216	0x3d48ba10	0.049005568
217	0xbcac342d	-0.021020973
218	0x3d790c52	0.060802765
219	0xbd9bb25b	-0.07602378
220	0xb9dc51ba	-0.0004202256
221	0xbd903cc8	-0.07042843
222	0xbde50dfc	-0.11184308
223	0x3cc93238	0.024560079
224	0x3c6f98a0	0.014623791
225	0xbd1b837d	-0.037967194
226	0xbccfcab5	-0.025365213
227	0x3e258bd2	0.16166618
228	0x3e0d87d1	0.13821341
229	0x3d1f113b	0.03883479
230	0xbdab9c92	-0.08379473
231	0x3d8e7ec3	0.06957772
232	0xbcf2bc33	-0.029630756
233	0xbd1b5367	-0.037921336
234	0x3badf10a	0.005308275
235	0x3d4563c2	0.04819084
236	0xbd7a97c0	-0.061179876
237	0xbd8f0029	-0.069824524
238	0xbdd7c33b	-0.10535284
239	0xbd0c30fa	-0.034226395
240	0x3d95b18a	0.073092535
241	0xbdc2b7af	-0.09507691
242	0x3d90f7fa	0.07078548
243	0xbc9181a5	-0.017762015
244	0xbd1c1d0d	-0.038113642
245	0x3d6e7ffe	0.05822753
246	0xbd1fffc5	-0.03906228
247	0xbd76d047	-0.060257223
248	0x3c7f6dd9	0.015590155
249	0x3b93dd00	0.0045124292
250	0x3daf5d27	0.08562689
251	0xbcbb1817	-0.022838635
252	0x3d5efdc3	0.054441225
253	0x3d5a526d	0.053301264
254	0xbde1f1ec	-0.11032471
255	0x3c3aea51	0.011408404

levels.0.layers.1.0.conv.bias f4 [32]
0	0xbd9baf7c	-0.0760183
1	0xbdbb1e20	-0.09136605
2	0x3d51fa13	0.05126388
3	0xbdd0f059	-0.10202093
4	0xbde358dd	-0.11100934
5	0x3d894fa1	0.06704641
6	0xbdc1f92a	-0.094713524
7	0x3d0d2e8f	0.03446823
8	0xbdc4001f	-0.095703356
9	0x3df111f8	0.117710054
10	0xbddda746	-0.108229205
11	0x3df33d72	0.11876954
12	0x3ccf8cc7	0.025335683
13	0x3d4658fe	0.048424713
14	0xbdb50109	-0.08838088
15	0xbdf3454c	-0.11878452
16	0x3df6cc90	0.12050736
17	0xbca10099	-0.019653605
18	0x3dc40f6b	0.09573253
19	0xbd5b9e21	-0.0536176
20	0xbd988f46	-0.07449202
21	0xbde20331	-0.11035765
22	0x3da7093f	0.081560604
23	0xbcc8f0eb	-0.024528941
24	0xbd2ce7d5	-0.04221328
25	0x3db4beb2	0.08825435
26	0xbdcefe13	-0.101070546
27	0x3dd7952c	0.10526499
28	0xbd892767	-0.066969685
29	0x3d406f75	0.046981294
30	0x3dfcd3cf	0.12345087
31	0x3b77b107	0.0037794726

levels.0.layers.2.0.conv.weight f4 [32, 64, 1]
0	0x3d1a3757	0.037650432
1	0x3db2b609	0.08726127
2	0xbe01e282	-0.12684062
3	0x3dc75c99	0.097344585
4	0x3d9e5257	0.07730549
5	0x3ce761e1	0.028244914
6	0x3e31b7b9	0.17355241
7	0xbb97aa17	-0.0046284306
8	0x3dc69694	0.09696689
9	0x3d937218	0.07199496
10	0xbd680c2e	-0.05665224
11	0x3bf9d590	0.0076243356
12	0xbcd7710c	-0.026299022
13	0x3cd9a302	0.026566986
14	0x3deeebb3	0.1166605
15	0xbd4e8346	-0.05041816
16	0x3da11b0d	0.07866488
17	0xbe0ec5ac	-0.13942593
18	0xbd938fb5	-0.07205144
19	0xbd26730f	-0.040637072
20	0x3d3a89f4	0.04554172
21	0xbdc77c91	-0.09740556
22	0x3d739181	0.059464935
23	0xbc822a6d	-0.01588937
24	0x3d2a0d36	0.041516505
25	0xbd848bf8	-0.064720094
26	0xbdcac007	-0.098999076
27	0xbda7d304	-0.08194545
28	0x3d795f5c	0.060881957
29	0x3d4ce0ac	0.05001895
30	0x3de2acbd	0.110681035
31	0xbcae59d6	-0.021283071
32	0xbc91a0d7	-0.01777689
33	0xbcfd38e4	-0.030910917
34	0xbdbb8bd7	-0.09157532
35	0x3c298eae	0.010348959
36	0x3da93863	0.08262708
37	0x3da5abb5	0.08089391
38	0xbde88630	-0.11353719
39	0xbd89a7bd	-0.06721447
40	0x3d8bcd05	0.06826214
41	0x3d59f44f	0.053211506
42	0xbdda13d0	-0.1064831
43	0xbe0db082	-0.13836864
44	0xbbcf63f5	-0.0063290545
45	0x3d1a4357	0.037661877
46	0xba40db91	-0.00073569367
47	0x3c825158	0.015907928
48	0x3d9e8cae	0.07741676
49	0xbd4139d8	-0.047174305
50	0xbd089b67	-0.03335133
51	0x3dca290b	0.098711096
52	0xbd4f45e0	-0.050603747
53	0x3cae2153	0.021256125
54	0xbe0bb332	-0.13642576
55	0x3b611562	0.003434502
56	0xbd8aeac9	-0.06783063
57	0xbe242682	-0.16030315
58	0xbdb754e8	-0.089517415
59	0xbe46de6a	-0.19420782
60	0x3d227069	0.039657984
61	0x3d4d80bd	0.050171603
62	0xbdf9143d	-0.12162063
63	0x3dacb0ae	0.084321365
64	0x3d9aef6e	0.07565199
65	0x3ca86851	0.020557554
66	0xbd150462	-0.036381133
67	0xbd20d878	-0.03926894
68	0x3bfaff90	0.00765986
69	0x3b3154ed	0.0027058676
70	0x3c946de9	0.018118815
71	0x3d8d9724	0.069135934
72	0x3d1a8a4d	0.03772955
73	0xbc66ceba	-0.014087373
74	0x3da932b5	0.08261625
75	0x3d7b519c	0.061357126
76	0x3d80d3fe	0.06290434
77	0xbda7cb0a	-0.081930235
78	0x3d88ad15	0.06673638
79	0x3d8cfcc7	0.06884151
80	0xbddc64be	-0.107614025
81	0x3ca059d4	0.019574083
82	0xb85329ec	-5.0345363e-05
83	0x3db9c1fe	0.09070204
84	0x3cc34bb1	0.023839803
85	0x3c156c28	0.009120025
86	0x3da27ce0	0.07933974
87	0x3c854d6d	0.016272271
88	0xbe063b83	-0.1310864
89	0x3e12b2e7	0.14326058
90	0xbd4ab93f	-0.04949307
91	0xbc5ae000	-0.01335907
92	0x3d1ba92b	0.038003128
93	0xbd65e217	-0.05612382
94	0x3cd1e136	0.025620084
95	0xbd2c4cd3	-0.042065453
96	0x3d8161e3	0.063174985
97	0xbdf1dd71	-0.11809815
98	0x3b8c3ed0	0.004279949
99	0x3db6309f	0.088959925
100	0xbd818402	-0.063240066
101	0xbdca6c09	-0.09883887
102	0xbd8df8d5	-0.069322266
103	0x3cceeaf6	0.025258522
104	0xbd648d3b	-0.05579875
105	0xbdd2351c	-0.10264036
106	0xbdb50e4e	-0.08840619
107	0xbcf16813	-0.029468572
108	0x3d8ae6c7	0.067822985
109	0x3d8a9988	0.06767565
110	0x3d5f696d	0.0545439
111	0x3d82b245	0.063816585
112	0xbdcfb2bf	-0.10141515
113	0x3dfe4fac	0.1241754
114	0xbe04c2d4	-0.12964946
115	0xbd714037	-0.05889913
116	0xbe467a51	-0.19382598
117	0xbd6647e7	-0.056220915
118	0x3d63fe03	0.055662166
119	0xbd8751e1	-0.06607414
120	0xbab09c98	-0.0013474403
121	0xbe36e3f2	-0.17860392
122	0xbdcb5b11	-0.09929479
123	0xbd32ad77	-0.04362246
124	0xbdab7dc3	-0.083735965
125	0xbe016cc0	-0.12639141
126	0x3d2cc3d7	0.042178955
127	0x3dcd60d2	0.10028233
128	0xbcc94054	-0.024566807
129	0x3d7e0237	0.06201383
130	0x3c1c87a5	0.009553825
131	0xbddf1635	-0.108929075
132	0xbc9a3944	-0.018826135
133	0x3a014b16	0.0004932148
134	0x3c83c6cf	0.01608601
135	0x3dac92e7	0.08426457
136	0xbc4b9d13	-0.012427586
137	0xbca85d33	-0.020552253
138	0x3c71b94a	0.014753649
139	0x3cadea20	0.021229804
140	0xbe06d978	-0.13168895
141	0x3cc48c7d	0.023992771
142	0xbd8fac08	-0.07015234
143	0x3ddcbdbd	0.10778377
144	0xbd7e2a46	-0.062052034
145	0xbc481bbd	-0.012213645
146	0xbdc46ce6	-0.09591083
147	0x3d8e13f3	0.06937399
148	0x3db1e911	0.08687032
149	0x3c50477d	0.012712357
150	0xbddb34af	-0.10703408
151	0x3d554ab9	0.052073214
152	0xbdc85128	-0.09781104
153	0xbaa86e79	-0.0012850306
154	0x3d427b4c	0.047480866
155	0x3d2f293a	0.042763926
156	0x3db271ea	0.08713134
157	0xbd82964a	-0.063763216
158	0x3dc36e6a	0.09542544
159	0x3d9c61b7	0.07635825
160	0x3db7e01e	0.08978294
161	0xbb8f5660	-0.0043743104
162	0x3dce7e45	0.10082678
163	0xbde5e993	-0.11226191
164	0xbd297cec	-0.0413789
165	0x3d0f8cab	0.03504626
166	0xbddaa6dd	-0.10676358
167	0x3ddb505a	0.10708685
168	0x3d09b7ec	0.033622667
169	0x3cb9bd8e	0.022673395
170	0xbc6cd13c	-0.014454182
171	0x3d86fb3a	0.065908864
172	0x3e01d94a	0.12680545
173	0xbd60444a	-0.054752626
174	0x3e03de74	0.12877828
175	0xbda0f94e	-0.07860051
176	0xbd01f2e4	-0.03172578
177	0xbd4e3b84	-0.050349727
178	0xbd5b227f	-0.053499695
179	0xbd9629b2	-0.073321715
180	0xbcad7d4c	-0.02117791
181	0xbd9560e3	-0.0729387
182	0xbdd34a42	-0.10316898
183	0xbcdbbfb6	-0.026824813
184	0xbbeb4a1a	-0.0071804645
185	0xbcb7915b	-0.022408178
186	0x3e0996f9	0.13436498
187	0xbd65dad2	-0.056116886
188	0x3e020c6e	0.12700054
189	0x3e101498	0.14070356
190	0xbcc82d56	-0.02443568
191	0xbd7e402c	-0.062072918
192	0x3d1e4c06	0.03864672
193	0x3d94a088	0.072571814
194	0x3db6c5a6	0.08924417
195	0x3d7b7d3a	0.061398722
196	0x3d72a442	0.05923868
197	0x3db7d895	0.089768566
198	0xbd78aa3b	-0.06070922
199	0xbda17fae	-0.07885681
200	0x3d5bb6ac	0.053641006
201	0xbde03179	-0.10946936
202	0x3e106c10	0.14103723
203	0x3db66346	0.08905654
204	0xbb105cdf	-0.0022028012
205	0xbda32b2e	-0.0796722
206	0xbd09ac4f	-0.033611592
207	0xbd148ce5	-0.03626718
208	0x3d1e1e76	0.03860327
209	0xbdab50b8	-0.08365005
210	0x3beeb481	0.0072847013
211	0xbd9350d5	-0.07193152
212	0x3d0f6229	0.035005722
213	0xbcf0cba2	-0.029393975
214	0xbdacbb1d	-0.084341265
215	0x3d41da93	0.04732759
216	0xbda5196a	-0.08061488
217	0xbdf671a0	-0.12033391
218	0x3e086c20	0.13322496
219	0xbb7eb2fb	-0.0038864005
220	0x3ddc4fc1	0.10757399
221	0x3cec2d3b	0.028830161
222	0xbd8723b1	-0.065986045
223	0xbc30b221	-0.010784657
224	0xbc4c95a8	-0.012486853
225	0xbd7ee78d	-0.062232543
226	0x3d359fa5	0.044341702
227	0xbddbd14f	-0.10733282
228	0x3da711d3	0.081576966
229	0xbd1928cc	-0.037392423
230	0xbdab57aa	-0.0836633
231	0xbd115ea1	-0.035490636
232	0x3c9b81f6	0.018982869
233	0x3cb39be8	0.021924928
234	0x3cac86ff	0.021060465
235	0xbda0997c	-0.07841775
236	0x3d9155fd	0.07096479
237	0x3d8e7808	0.06956488
238	0xbd90448f	-0.070443265
239	0xbdb868d2	-0.09004368
240	0x3c67584d	0.014120174
241	0xbd3f2e04	-0.046674743
242	0xbe1ef9db	-0.15525
243	0xbd119f9e	-0.035552613
244	0xbd47b99f	-0.048761006
245	0x3df9f24e	0.12204419
246	0xbe1d4e87	-0.15361987
247	0xbdbdc4ae	-0.09266029
248	0x3e00ee7d	0.12590976
249	0xbbbdcf3f	-0.005792528
250	0xbe0c7758	-0.13717401
251	0x3d0fc599	0.035100553
252	0x3c4f9e56	0.012672028
253	0x3da517ae	0.08061157
254	0x3d239d9a	0.039945222
255	0xbd864206	-0.06555562

levels.0.layers.2.0.conv.bias f4 [32]
0	0x3d8e5fc1	0.06951857
1	0xbd66305f	-0.056198474
2	0x3dae9a72	0.08525552
3	0xbdc80624	-0.09766796
4	0xbde0e91c	-0.10981962
5	0xbddc49f0	-0.1075629
6	0x3cbcfb2e	0.02306899
7	0xbdae0710	-0.08497441
8	0x3dfffd7e	0.12499522
9	0x3d08fba4	0.03344311
10	0x3dea6fb8	0.1144709
11	0xbd62ec61	-0.05540121
12	0x3df9e210	0.12201321
13	0x3da2ecf3	0.07955351
14	0xbd3c1034	-0.04591389
15	0x3cea40d1	0.02859536
16	0x3a1309fe	0.0005609094
17	0x3d963a2f	0.073353164
18	0x3dd68c1f	0.10475945
19	0x3c72f1cc	0.014828157
20	0x3d15c5b5	0.0365655
21	0x3dc1b02d	0.09457431
22	0x3ddef2b8	0.10886139
23	0xbdd57f0c	-0.10424623
24	0xbd4124ef	-0.047154363
25	0x3dc9c850	0.0985266
26	0xbca480e8	-0.020080999
27	0x3d843812	0.06456007
28	0xbcc5f6c3	-0.024165517
29	0xbd4e5e7c	-0.050383076
30	0x3dd1f6b0	0.1025213
31	0x3d9c695a	0.07637282

levels.0.layers.3.0.conv.weight f4 [32, 64, 1]
0	0x3cccf304	0.025018223
1	0x3c888b23	0.016667908
2	0xbdce7427	-0.10080748
3	0xbd1f403a	-0.03887961
4	0xbe112684	-0.14174849
5	0xbd4ea245	-0.05044772
6	0xbd167c7e	-0.03673982
7	0x3d6fe7b3	0.058570575
8	0x3dcc38fd	0.09971807
9	0x3cb1195b	0.021618536
10	0xbc9d8edf	-0.019233165
11	0xbde5606e	-0.11200033
12	0x3d7b69d0	0.061380208
13	0x3ce51be1	0.027967395
14	0x3d5ec0a3	0.05438293
15	0x3cac2a0c	0.021016143
16	0xbaaeaaf9	-0.00133261
17	0x3d37a1c6	0.044832014
18	0x3d41be17	0.047300424
19	0x3da2c7f9	0.07948298
20	0x3db9e822	0.09077479
21	0xbdc2e9a7	-0.09517222
22	0x3d6adcf9	0.057339642
23	0x3db24a96	0.087056324
24	0xbd6064de	-0.054783694
25	0x3d8c40d8	0.068483055
26	0x3d8286a6	0.063733384
27	0xbd93ebe3	-0.07222726
28	0xbceb93ba	-0.028756965
29	0x3df4ada4	0.11947182
30	0x3d26a18d	0.04068141
31	0x3c31d4dc	0.010853972
32	0x3c545663	0.012960049
33	0x3d835b69	0.064139195
34	0xbdc7daae	-0.09758507
35	0x3daa7255	0.08322588
36	0x3c07adf8	0.0082812235
37	0xbde001f4	-0.109378725
38	0x3e1516ff	0.14559554
39	0xbe097723	-0.13424353
40	0x3de55af2	0.11198987
41	0x3da2a77e	0.07942103
42	0x3d87e9ab	0.066363655
43	0x3ca965aa	0.02067836
44	0xbc8d5747	-0.017253531
45	0xbde3c314	-0.111211926
46	0x3db91bd5	0.09038512
47	0xbc8647c4	-0.016391642
48	0x3e1dd2d2	0.15412453
49	0xbd1bce4e	-0.038038544
50	0xbba656f8	-0.0050762855
51	0xbd281673	-0.041037034
52	0xbcc49d39	-0.02400075
53	0x3d19035a	0.037356712
54	0xba513352	-0.00079803646
55	0x3d07b811	0.033134524
56	0xbd9316ef	-0.071821086
57	0x3e01d9de	0.12680766
58	0x3d756703	0.059912693
59	0xbd2ef5b7	-0.0427148
60	0xbd9f24f7	-0.07770722
61	0xbd3eb7f9	-0.04656217
62	0x3d9c6337	0.07636111
63	0xbd951468	-0.07279283
64	0xbd98087f	-0.074234955
65	0x3d91b88b	0.07115277
66	0xbd368f83	-0.044570457
67	0x3d185821	0.03719342
68	0xbd2f5a46	-0.0428107
69	0xbd4cc4d5	-0.0499924
70	0x3ce3386e	0.027736869
71	0xbe0d7759	-0.13815059
72	0x3e0067fb	0.12539665
73	0x3c459a0e	0.012060655
74	0x3d390a90	0.04517609
75	0x3e06a3a6	0.13148364
76	0xbddd3208	-0.10800558
77	0x3d6d1903	0.05788518
78	0x3da0e11b	0.078554355
79	0xbdfeac87	-0.12435251
80	0xbd3989c1	-0.045297388
81	0xbd128575	-0.035771806
82	0x3bb996a3	0.0056637092
83	0x3e05fc4d	0.13084526
84	0xbc9e4c1f	-0.019323407
85	0xbd85a156	-0.06524913
86	0xbc8083ec	-0.015687905
87	0xbd7f7de6	-0.062375925
88	0xbdc0579d	-0.09391711
89	0x3c61389c	0.013746407
90	0x3daf8041	0.08569384
91	0x3e024ab7	0.12723814
92	0x3d51d518	0.051228613
93	0x3d520ca0	0.05128157
94	0x3da57fde	0.08081029
95	0x3cf44bc1	0.029821279
96	0x3da13298	0.07870978
97	0xbd548cb8	-0.051892012
98	0xbe189d68	-0.14903796
99	0x3cb23b3c	0.02175676
100	0x3cab6135	0.020920375
101	0xbdbb3beb	-0.09142288
102	0xbd579799	-0.05263481
103	0x3e07e1b5	0.13269694
104	0xbda17187	-0.07882982
105	0xbda61bbe	-0.0811076
106	0xbdac2fc8	-0.08407551
107	0xbdb1f010	-0.086883664
108	0xbd028342	-0.03186346
109	0x3e1afdee	0.15135929
110	0x3ccf89e2	0.025334302
111	0xbd87ba1b	-0.06627294
112	0x3dac7f84	0.08422759
113	0xbd7fffd7	-0.062499847
114	0xbdf7c878	-0.12098783
115	0xbdb6098f	-0.08888542
116	0xbe09210e	-0.13391516
117	0xbbf2cccb	-0.007409667
118	0x3c8803f5	0.01660345
119	0xbe2387ac	-0.15969723
120	0xbde0b500	-0.10972023
121	0x3dea43a9	0.114386864
122	0x3b299bf1	0.0025880302
123	0xbdddd787	-0.10832124
124	0xbd6e3b2d	-0.058161903
125	0xbdf81eee	-0.12115274
126	0x3d861751	0.06547416
127	0xbdcc7be7	-0.0998457
128	0x3ad4e3f7	0.0016242255
129	0xbb9b0445	-0.0047307336
130	0x3ce755c2	0.028239135
131	0xbd4cb482	-0.049976833
132	0x3d069399	0.032855604
133	0xbd75fee4	-0.060057536
134	0x3da432e5	0.0801752
135	0x3a7576f6	0.0009363735
136	0x3d119edf	0.035551902
137	0xbbcb379f	-0.006201699
138	0x3c2acd60	0.010424942
139	0xbdf5c6ec	-0.12000832
140	0x3d46b591	0.048513
141	0x3dc6e0d9	0.09710855
142	0x3cc87ab2	0.024472568
143	0xbdeff3b2	-0.11716403
144	0xbdc0653c	-0.09394309
145	0xbd06a5ec	-0.03287308
146	0xbaad0773	-0.0013201073
147	0xbd2c0460	-0.04199636
148	0x3cf99025	0.030464241
149	0xbd1e239b	-0.038608175
150	0x3d916719	0.070997424
151	0xbd7a7757	-0.061148968
152	0xbdc49bd8	-0.09600037
153	0xbbd821ee	-0.0065958416
154	0x3d8a4212	0.06750883
155	0x3d528f7b	0.051406365
156	0x3b0b8e33	0.0021294474
157	0x3de0e8f6	0.10981934
158	0x3d4986d2	0.04920084
159	0x3d76a1cc	0.060212895
160	0x3d45799e	0.048211686
161	0xbe0e75c7	-0.13912116
162	0xbd1c0c0c	-0.038097426
163	0xbdaa6590	-0.08320153
164	0x3c9b8559	0.018984484
165	0x3d545c32	0.051845737
166	0xbd3e99dc	-0.04653345
167	0x3ddb1f59	0.106993385
168	0x3d325821	0.043541078
169	0x3de5d013	0.11221328
170	0x3d3c3b08	0.045954734
171	0xbdc69317	-0.09696024
172	0x3dc2f22e	0.09518848
173	0x3cf13873	0.029445862
174	0xbe2c209f	-0.16809319
175	0xbd53d308	-0.051714927
176	0x3da19243	0.07889225
177	0x3db061b9	0.08612389
178	0x3de4da99	0.11174507
179	0x3dc31b07	0.095266394
180	0xbbed948a	-0.0072503733
181	0xbda8ea3e	-0.08247803
182	0xbd112781	-0.035438064
183	0xbd8c40be	-0.06848286
184	0x3c875288	0.016518846
185	0xbdcd3ec5	-0.10021738
186	0xbc17a6c8	-0.009256072
187	0xbe252b7e	-0.16129872
188	0xbe0ffeb1	-0.14062001
189	0x3d8d2052	0.0689093
190	0xbe02c1da	-0.12769261
191	0xbdae87fb	-0.0852203
192	0x3ce8722b	0.028374752
193	0x3d2c2c07	0.042034175
194	0x3d51da90	0.051233828
195	0x3c2351cf	0.009968235
196	0x3d1db14c	0.03849916
197	0xbae4416b	-0.0017414516
198	0xbd92455f	-0.07142138
199	0xbe166667	-0.14687501
200	0x3c64729b	0.01394334
201	0x3d02535f	0.03181779
202	0x3e14cbfb	0.14530937
203	0xbd6b0df4	-0.057386354
204	0x3cbc8d8e	0.023016717
205	0x3d050ed9	0.032484863
206	0x3de25945	0.11052183
207	0x3c80da2a	0.015729029
208	0x3dc18b48	0.09450394
209	0xbc18e1c7	-0.009331173
210	0xbd510e47	-0.051039007
211	0x3c94e8b0	0.01817736
212	0x3d40591e	0.04695999
213	0xbcab4adc	-0.02090972
214	0x3ca57a06	0.020199787
215	0x3d17b720	0.037039876
216	0xbd589b71	-0.052882615
217	0x3cf82587	0.030291332
218	0xbd6736a9	-0.056448612
219	0xbdc13a98	-0.09435004
220	0xbd6f33d4	-0.058399037
221	0x3d8f4f11	0.069975026
222	0x3dc960be	0.09832905
223	0x3cf46c01	0.029836657
224	0x3d20a045	0.039215345
225	0x3d9ed5db	0.077556334
226	0x3d564fdb	0.05232225
227	0x3c03126e	0.007999999
228	0xbd89f3e7	-0.06735974
229	0xbe18f04d	-0.14935417
230	0x3ddbb20d	0.1072732
231	0x3d90f3f7	0.070777826
232	0x3d3eb49b	0.046558958
233	0x3d5f7710	0.054556906
234	0x3ddc74c8	0.10764462
235	0xbde2c65f	-0.110729925
236	0x3d45c7df	0.048286315
237	0x3d67fd00	0.056637764
238	0x3d014a9f	0.031565305
239	0x3c09c6ba	0.0084091965
240	0xbc457ba4	-0.012053404
241	0xb98d5000	-0.0002695322
242	0x3c0dbd57	0.008651099
243	0xbdde374f	-0.10850393
244	0x3d820ef1	0.06350506
245	0x3e0141dd	0.12622781
246	0xbcee4841	-0.029087188
247	0x3cbdb8c1	0.023159387
248	0xbdb16ea7	-0.086636834
249	0x3d11c8df	0.035591956
250	0x3dd05be2	0.10173775
251	0xbe09764c	-0.13424033
252	0x3c99fd06	0.018797409
253	0x3d5efc8b	0.054440062
254	0x3ce10ecc	0.027472876
255	0xbdfe1e2e	-0.124081

levels.0.layers.3.0.conv.bias f4 [32]
0	0x3c78898b	0.015169512
1	0x3da6059a	0.08106537
2	0x3cc9c7ce	0.024631407
3	0xbde3d8e3	-0.11125352
4	0x3c94e6e1	0.018176498
5	0xbd252639	-0.040319655
6	0x3cabb3cd	0.02095976
7	0x3b899f36	0.0041998876
8	0x3d55f7f1	0.05223841
9	0xbbe5b2e4	-0.007009851
10	0x3dcc59b3	0.09978046
11	0x3dd7f479	0.10544676
12	0x3d444101	0.047913555
13	0x3d9cf3be	0.07663678
14	0x3d636150	0.055512726
15	0xbd5112da	-0.05104337
16	0x3d69f494	0.057118014
17	0xbddc56dc	-0.107587546
18	0xbc4f0a3d	-0.012636718
19	0x3d6634e7	0.056202795
20	0x3ddc261d	0.10749457
21	0x3d1c6ed2	0.038191624
22	0x3d83e19d	0.06439517
23	0xbdf73d51	-0.12072242
24	0xbd05b451	-0.032642666
25	0x3d835273	0.0641221
26	0x3d349c4f	0.04409438
27	0xbd9bd403	-0.076087974
28	0xbde4f2d5	-0.11179129
29	0x39a70204	0.00031854224
30	0x3dba59dc	0.090991706
31	0xbe03986c	-0.12851113

levels.0.layers.4.0.conv.weight f4 [32, 64, 1]
0	0x3c9791d8	0.01850216
1	0x3dda18db	0.10649272
2	0x3db90a1a	0.0903513
3	0xbdaf7faa	-0.08569272
4	0x3dd07d4e	0.1018015
5	0x3cf440b6	0.029816013
6	0xbd801879	-0.06254668
7	0xbbb32561	-0.0054671024
8	0xbc2f334f	-0.010693385
9	0x3e10a528	0.14125502
10	0xbd290031	-0.04125995
11	0x3bd2fb98	0.0064386837
12	0x3cc0f34b	0.023553511
13	0x3c99adcd	0.018759632
14	0x3cb58a50	0.02216068
15	0x3e0471ea	0.1293408
16	0xbd93c280	-0.07214832
17	0x3db8cfbb	0.090239964
18	0xbc9dfc10	-0.019285232
19	0x3dd3f681	0.10349751
20	0x3e33cc61	0.17558433
21	0x3d233181	0.039842132
22	0x3dd0ce7d	0.101956345
23	0xbd72b19f	-0.059251424
24	0xbdf7c87f	-0.120987885
25	0xbc4df975	-0.012571682
26	0x3d9e2419	0.07721729
27	0xbd3ab376	-0.045581304
28	0xbd4ceb28	-0.05002895
29	0x3d235f59	0.039885852
30	0x3d6db543	0.058034193
31	0x3e272b2d	0.16325064
32	0xbda3d400	-0.0799942
33	0xbd8dbaac	-0.069203705
34	0x3c4917f5	0.012273778
35	0x3bff5eb4	0.007793272
36	0x3dd4145e	0.10355447
37	0xbd9a4819	-0.07533283
38	0x3dc8921b	0.097934924
39	0xbc9a5797	-0.018840594
40	0x3d6a3ba0	0.05718577
41	0x3dafb702	0.08579828
42	0xbcac2337	-0.021012885
43	0xbdea8fe7	-0.114532284
44	0x3ccad1e8	0.024758294
45	0x3da01cdb	0.07818004
46	0x3d87a4cf	0.066232316
47	0xbd5b2a9d	-0.053507436
48	0xbdeb6934	-0.11494675
49	0xbc5ed566	-0.013600683
50	0x3d1a6eff	0.03770351
51	0x3c88beb3	0.016692495
52	0xbd8a5b9c	-0.06755754
53	0x3d660af9	0.056162808
54	0xbd4382f8	-0.047732323
55	0xbdf72d2d	-0.120691635
56	0x3dd99345	0.106237926
57	0x3ca2c643	0.01986993
58	0x3d48eb95	0.049052794
59	0x3d42c004	0.0475464
60	0xbcee025c	-0.02905386
61	0xbc3b45a0	-0.011430174
62	0x3d906e85	0.0705233
63	0x3d90c7db	0.070693694
64	0xbdd9496c	-0.10609707
65	0xbe116f56	-0.14202628
66	0xbc8a7ac0	-0.016904235
67	0xbd218317	-0.039431658
68	0x3b04519d	0.0020190247
69	0x3df71903	0.120653175
70	0x3d31dc23	0.04342283
71	0xbd622b83	-0.055217277
72	0xbd6b08bf	-0.057381388
73	0xbbbcb540	-0.0057589114
74	0xbe13f552	-0.14449051
75	0xbdcd1c3a	-0.100151494
76	0xbd74c57e	-0.059758656
77	0xbd40ed49	-0.047101293
78	0xbdbbc1da	-0.091678336
79	0xbdbc145c	-0.09183571
80	0x3de89972	0.11357392
81	0xbcfef398	-0.031122014
82	0xbd173489	-0.036915336
83	0x3dc6c479	0.09705443
84	0x3c6262c3	0.013817492
85	0xbd7fc097	-0.062439527
86	0x3dfb4fe1	0.12271095
87	0x3d20fbe5	0.039302725
88	0xbdd82686	-0.10554223
89	0xbdc12870	-0.09431541
90	0xbcd2e9c6	-0.025746237
91	0xbc1e901c	-0.009677913
92	0xbd4179ff	-0.047235485
93	0x3ddf03a8	0.10889369
94	0xbdc6e5c9	-0.09711797
95	0x3dd6be8c	0.10485563
96	0xbe2cb382	-0.16865352
97	0x3d798dd5	0.060926277
98	0xbdbcdd55	-0.09221903
99	0x3c8d27f8	0.017230973
100	0x3dc06444	0.09394124
101	0xbdbd9798	-0.0925743
102	0x3d010fd6	0.031509243
103	0x3c8cc60a	0.017184276
104	0x3dc042d5	0.09387747
105	0xbbc8d47d	-0.006128846
106	0x3e025cee	0.12730762
107	0x3db55e2b	0.08855852
108	0x3a85ca17	0.0010207322
109	0xbd9c171c	-0.07621595
110	0x3d7b7c26	0.061397694
111	0x3d8da6e4	0.069165975
112	0x3dc297f8	0.09501642
113	0x3ce34a29	0.027745323
114	0xbceab14b	-0.028648993
115	0xbd0c486c	-0.034248754
116	0xbe06dd7a	-0.13170424
117	0xbde99e60	-0.11407161
118	0xbcb5c62b	-0.02218922
119	0x3e25b427	0.16182004
120	0x3b286766	0.0025696396
121	0x3c2e1c34	0.010626841
122	0x3d95bb05	0.07311062
123	0xbbdf0b8f	-0.006806798
124	0x3de6d34c	0.112707704
125	0xbda80121	-0.0820334
126	0x3d20652f	0.039158996
127	0xbdb335df	-0.087505095
128	0x3d39bbb2	0.045345016
129	0xbbbe0a36	-0.005799557
130	0xbb6de77a	-0.00363013
131	0xbc586773	-0.013208258
132	0xbbe9d6c4	-0.0071361978
133	0xbb964425	-0.00458576
134	0x3dd2b3a7	0.10288172
135	0xbd034bc5	-0.03205468
136	0xbd66c77b	-0.056342583
137	0xbc89464d	-0.016757155
138	0x3cdafee4	0.02673287
139	0x3db978f3	0.09056272
140	0x3c6303d4	0.013855893
141	0xbdaefb98	-0.085440814
142	0xbcb4d13c	-0.022072427
143	0x3caebdba	0.021330703
144	0xbdbad6cd	-0.09123001
145	0xbcc08e6a	-0.023505408
146	0xbd301315	-0.042986948
147	0xbbb6cc68	-0.0055785663
148	0xbd3f3aa8	-0.0466868
149	0x3b3869f3	0.0028139323
150	0xbc60521c	-0.013691451
151	0x3d924e96	0.07143895
152	0x3db838de	0.089952216
153	0x3d0739a8	0.03301397
154	0xbd97058d	-0.073741056
155	0xbdcb2d04	-0.099206954
156	0xbc403b53	-0.011732894
157	0x3bdc6f5e	0.006727143
158	0xbb755c39	-0.0037439002
159	0xbdca304b	-0.098724924
160	0xbd46b5d2	-0.04851324
161	0xbdf922c8	-0.12164837
162	0xbcccf69f	-0.025019942
163	0x3d393cae	0.045223884
164	0x3c65dc76	0.014029613
165	0xbad7b562	-0.0016457255
166	0xbe23795d	-0.15964265
167	0xbc769df0	-0.015052304
168	0xbd814742	-0.063124195
169	0xbddcad94	-0.10775295
170	0x3c87640d	0.0165272
171	0xbd91f221	-0.071262605
172	0x3de351fe	0.11099623
173	0xbd741e75	-0.05959936
174	0xbc826fc1	-0.015922429
175	0xbdab2c8a	-0.083581045
176	0xbdb953be	-0.09049176
177	0xbdfeec3d	-0.124474026
178	0xbe033f0d	-0.1281702
179	0x3d34bf65	0.04412784
180	0xbca8dcfc	-0.020613186
181	0x3ded233a	0.115789846
182	0x3cdd7071	0.027031155
183	0x3cc60229	0.024170952
184	0x3ceb3154	0.028710045
185	0x3d3d165b	0.046163898
186	0x3ccba63d	0.024859542
187	0xbd40f5f9	-0.047109578
188	0x3c4a9c73	0.012366402
189	0x3d5f60a9	0.05453554
190	0xbde8487a	-0.11341949
191	0xbe2464ad	-0.1605403
192	0x3d34e087	0.04415944
193	0xbd48dad7	-0.049036827
194	0x3c839cfc	0.016066067
195	0xbd27fac5	-0.041010637
196	0xbd39ddc0	-0.045377493
197	0xbdbba76f	-0.09162795
198	0x3dd3e5ea	0.10346587
199	0xbd9e881a	-0.07740803
200	0xbdf9df96	-0.12200849
201	0xbda93d6c	-0.082636684
202	0x3d94cb61	0.07265354
203	0xbd040276	-0.03222891
204	0xbcb90bca	-0.02258863
205	0x3d381e44	0.04495074
206	0x3c33b8d1	0.010969357
207	0xbcea3071	-0.028587552
208	0xbde55777	-0.11198323
209	0x3dd1289f	0.10212826
210	0x3d679950	0.056542695
211	0xbd25a4cb	-0.040440362
212	0xbe0ae389	-0.1356336
213	0xbcc234bf	-0.023706792
214	0x3ca3538c	0.0199373
215	0xbe075efd	-0.13219829
216	0xbbbb04b9	-0.00570735
217	0x3d85b20c	0.065281
218	0xbc8d9527	-0.017283035
219	0x3d3b8fe6	0.04579153
220	0xbd9af4c8	-0.075662196
221	0xbd9419eb	-0.07231506
222	0xbda2371e	-0.07920669
223	0x3d5d95fe	0.05409812
224	0x3d6c448c	0.05768256
225	0xbd9c472d	-0.07630763
226	0x3dcc4db3	0.099757574
227	0x3de4b8c1	0.111680515
228	0x3df9c0e1	0.12194992
229	0xbe071c63	-0.13194422
230	0x3d9853fa	0.07437892
231	0x3d0d472b	0.0344917
232	0xbba0ebaf	-0.004910908
233	0x3d531107	0.05152991
234	0x3d2c9edb	0.042143684
235	0xbdc1d6dd	-0.0946481
236	0x3d2b955d	0.04189049
237	0xbccf4dd4	-0.025305666
238	0xbd6b6a5a	-0.05747447
239	0x3e0b193e	0.13583848
240	0xbdad2803	-0.08454897
241	0xbcec463d	-0.028842086
242	0xbb569c39	-0.0032746925
243	0xbd698297	-0.057009306
244	0x3a7c7559	0.0009630523
245	0x3da70872	0.08155908
246	0xbe3dbdfd	-0.18529506
247	0xbdb8fa94	-0.09032169
248	0x3e0892c4	0.13337237
249	0xbd9c5def	-0.07635104
250	0xbe009692	-0.12557438
251	0xbb61895f	-0.0034414155
252	0x3dbbf6cd	0.09177933
253	0x3cfda635	0.030963043
254	0x3e019cf8	0.12657535
255	0x3d898c07	0.06716161

levels.0.layers.4.0.conv.bias f4 [32]
0	0xbd7402e2	-0.05957306
1	0xbdb11123	-0.08645847
2	0xbd8ebf31	-0.069700606
3	0x3dedb443	0.11606648
4	0xbdd90669	-0.10596926
5	0x3cb190b6	0.021675449
6	0x3df66190	0.12030327
7	0xbd1839c5	-0.03716447
8	0xbdb458d0	-0.08806002
9	0x3d64be7c	0.055845723
10	0xbdb1e19b	-0.08685609
11	0x3d633e3c	0.055479273
12	0x3dfa7509	0.12229354
13	0xbc1de4ba	-0.009637052
14	0xbd28831e	-0.041140668
15	0x3d3cea8d	0.046122123
16	0x3dbe305c	0.092865676
17	0x3d891ac8	0.06694561
18	0x3d5e1343	0.05421759
19	0xbd9f2b97	-0.07771986
20	0xbd84ae45	-0.06478552
21	0xbdb42af6	-0.08797257
22	0x3bb11348	0.00540391
23	0xbd361f92	-0.0444637
24	0x3dba7872	0.09105004
25	0xbd9494c4	-0.07254937
26	0xbd9dfe60	-0.07714534
27	0xbd11c118	-0.03558454
28	0x3dadecb9	0.08492417
29	0x3dd4a166	0.10382347
30	0xbccfa24e	-0.025345948
31	0x3dd2af52	0.10287346

levels.0.layers.5.conv.weight f4 [1, 64, 1]
0	0x3a5ad7d0	0.00083481986
1	0xba5df534	-0.0008467019
2	0x3aff4717	0.0019476142
3	0x38a40920	7.821829e-05
4	0x3ba9a986	0.0051776795
5	0xba1ecaca	-0.00060574396
6	0x39cce4b0	0.00039080298
7	0x3b01f1bc	0.0019827923
8	0xbaf01209	-0.0018315922
9	0xb9be2a5a	-0.00036271178
10	0xb956142e	-0.00020416148
11	0xb817d1a3	-3.6196445e-05
12	0xbbb3eaa6	-0.0054906188
13	0xbbb5fe6a	-0.00555401
14	0xba87c299	-0.0010357677
15	0xba852061	-0.0010156744
16	0xbabcd2f3	-0.001440613
17	0xbb240926	-0.0025029867
18	0x3aa060ff	0.0012235938
19	0x3c0370b3	0.008022475
20	0xbb472c81	-0.0030391517
21	0xbb99cd91	-0.004693695
22	0x3ad06955	0.0015900532
23	0xbb4d89c6	-0.0031362637
24	0x3723de8c	9.767373e-06
25	0x3a8314ef	0.0010000746
26	0x3b06074e	0.0020451131
27	0x3ad659a8	0.0016353624
28	0x3b898681	0.0041969423
29	0x3a1a209a	0.0005879492
30	0xbadf0888	-0.0017016092
31	0x3bc3ebf0	0.0059790537
32	0xbb86c124	-0.0041123796
33	0x3b9bee51	0.004758634
34	0xbba038d8	-0.004889589
35	0xb7efa1b2	-2.8566315e-05
36	0xbc0b7f0c	-0.008514177
37	0xbafa2603	-0.0019084815
38	0x3a9c8302	0.0011940899
39	0xb99f1b58	-0.00030347216
40	0x3b8dd68b	0.004328554
41	0x3abca967	0.0014393748
42	0xbbcfc90e	-0.0063411063
43	0x3b3f75ba	0.0029214458
44	0x3bcd5144	0.006265791
45	0x3b559922	0.0032592495
46	0x39e6bdb4	0.00044010358
47	0xbab6dfb3	-0.0013952166
48	0xbbc35b4e	-0.005961812
49	0x3a75bf7b	0.0009374541
50	0x3b307112	0.0026922864
51	0xbc68809c	-0.014190819
52	0x3bd45b66	0.006480622
53	0x3c13e191	0.009025947
54	0xbb5038e0	-0.0031772181
55	0x3c219f3b	0.009864624
56	0x3a48196f	0.00076331844
57	0xbb6d04d5	-0.003616621
58	0xbc2b9c13	-0.010474223
59	0xbae8b294	-0.0017753416
60	0xbbf2f870	-0.00741487
61	0xba4f9627	-0.0007918798
62	0xbb12b5e6	-0.0022386252
63	0xbac51421	-0.0015035906

levels.1.layers.0.0.conv.weight f4 [64, 4, 1]
0	0xbc875102	-0.01651812
1	0xbea4c2e5	-0.32179943
2	0x3dad0905	0.08448986
3	0x3ef828de	0.4846868
4	0x3f04ebf8	0.5192256
5	0x3eabb34b	0.33535227
6	0xbe6725d4	-0.22573024
7	0xbe355199	-0.17706908
8	0x3d057e6b	0.032591265
9	0xbeb374f4	-0.35050166
10	0x3e861857	0.26190445
11	0x3e95dafa	0.29268628
12	0xbf122657	-0.5708975
13	0xbd7495b6	-0.059713088
14	0xbe85ba3b	-0.26118645
15	0xbd5d45b0	-0.054021537
16	0x3f0f4c72	0.5597602
17	0xbd38c93b	-0.045113783
18	0x3c6865c4	0.014184419
19	0x3e8c3e89	0.2739146
20	0xbed2ccb4	-0.411718
21	0xbe0ee4a8	-0.13954413
22	0x3ea7e228	0.3278973
23	0x3e8ae5b3	0.27128372
24	0x3ea2605b	0.31714138
25	0xbe9f9e29	-0.31175354
26	0xbe2059f6	-0.15659317
27	0xbefe70c1	-0.496954
28	0x3e8b5088	0.27209878
29	0xbe8b2ca5	-0.271825
30	0x3e9e89e7	0.30964586
31	0x3eb9be13	0.36277828
32	0xbdf67379	-0.120337434
33	0x3eadd3d0	0.33950663
34	0xbef98479	-0.4873388
35	0x3e861731	0.2618957
36	0x3ca858ea	0.02055021
37	0xbe2fe17b	-0.17175858
38	0x3ee73d63	0.45164022
39	0xbeffb823	-0.49945173
40	0xbd8c069e	-0.068372
41	0x3ebd1c22	0.36935526
42	0x3ede02fa	0.43361646
43	0x3ed7e64f	0.421679
44	0x3ed6ecc2	0.41977507
45	0xbe367d85	-0.1782132
46	0xbe9b9459	-0.30386618
47	0x3bd86be0	0.0066046566
48	0x3ec61ac4	0.38692296
49	0xbe6488a4	-0.2231775
50	0xbe177d11	-0.14793803
51	0xbf1207ba	-0.5704304
52	0x3e43cadc	0.19120353
53	0x3e8b3447	0.27188322
54	0x3f155dd9	0.58346325
55	0x3de6577b	0.11247154
56	0xbd851903	-0.06498911
57	0x3d82b166	0.06381492
58	0xbec75732	-0.38933712
59	0x3e41f435	0.18940814
60	0x3eb44def	0.3521571
61	0xbe559872	-0.20858935
62	0xbe43f7c7	-0.19137488
63	0xbdf41870	-0.119187236
64	0xbe6e521c	-0.2327351
65	0xbd22cf09	-0.039748225
66	0xbeb39b8d	-0.35079613
67	0xbe75435e	-0.2395148
68	0x3ee62582	0.4495049
69	0xbefc90b6	-0.49329156
70	0x3e9d324a	0.3070243
71	0xbeb34b87	-0.3501856
72	0xbec376b6	-0.38176507
73	0xbf1260e1	-0.57179075
74	0x3ed17a9a	0.4091385
75	0xbec53b82	-0.38521963
76	0x3e226d52	0.15862015
77	0xbe9ce8bc	-0.30646312
78	0xbeb1b766	-0.34710234
79	0x3eaecf33	0.34142455
80	0x3db628a5	0.08894471
81	0xbeb4f905	-0.35346237
82	0x3e677a65	0.22605284
83	0xbe0a9381	-0.13532831
84	0x3e57aeec	0.21062821
85	0x3cca28a5	0.024677584
86	0xbeac7fbc	-0.33691204
87	0xbe5923ac	-0.21205014
88	0x3ea0bc11	0.31393483
89	0xbe731c96	-0.23741373
90	0xbe326d41	-0.1742449
91	0xbd814424	-0.06311825
92	0x3b5abef3	0.0033377975
93	0x3e41f5a0	0.18941355
94	0xbe9ff193	-0.31238994
95	0xbd89e1e0	-0.06732535
96	0xbe69249a	-0.22767869
97	0xbe719e8f	-0.23595642
98	0xbe2f4b1b	-0.17118494
99	0x3e3ce16c	0.18445367
100	0x3f0b7550	0.5447588
101	0x3d8da3e6	0.06916027
102	0xbe959afb	-0.29219803
103	0x3e3e8296	0.18604502
104	0x3db699a5	0.08916024
105	0xbf180504	-0.59382653
106	0xbe897da5	-0.26853672
107	0xbed8b1fb	-0.42323288
108	0x3f0ebfed	0.55761606
109	0xbd3763c9	-0.044772897
110	0xbeab17b0	-0.3341651
111	0xbe34d758	-0.17660272
112	0x3ebccabb	0.3687342
113	0xbebcd84b	-0.36883768
114	0x3f10c6fb	0.5655362
115	0xbd1233d4	-0.03569396
116	0x3eddbeff	0.4330978
117	0xbde724d1	-0.11286319
118	0xbc4fe655	-0.012689193
119	0xbefae891	-0.4900556
120	0x3ef01776	0.468929
121	0xbda6e69a	-0.081494525
122	0xbca052b0	-0.019570678
123	0xbe2c1932	-0.16806486
124	0x3b6af552	0.0035851789
125	0xbea49fd4	-0.3215319
126	0xbef0f77a	-0.4706381
127	0xbe1621f7	-0.14661394
128	0x3e976f4c	0.295771
129	0x3db551c6	0.08853488
130	0xbee3961f	-0.4445047
131	0x3dd2a8ec	0.102861255
132	0x3ed229fb	0.41047654
133	0xbe7ab34c	-0.24482459
134	0xbd5fcf2c	-0.054640934
135	0xbda8e98c	-0.082476705
136	0xbcd4426a	-0.025910575
137	0x3ea7cfb6	0.32775658
138	0x3df429fe	0.11922072
139	0xbdb8efb6	-0.09030096
140	0xbd8e8c06	-0.06960301
141	0xbcd2916d	-0.02570411
142	0xbe56e0c9	-0.20984186
143	0xbe96458d	-0.29349938
144	0x3ead67b1	0.33868173
145	0x3f0f92d9	0.56083447
146	0x3e8b98d2	0.2726503
147	0xbe985c52	-0.29757935
148	0x3e150355	0.14552052
149	0xbd86e975	-0.06587497
150	0xbe2a9e5a	-0.16661969
151	0xbe9dd2a5	-0.30824772
152	0x3e9a3592	0.30118996
153	0xbe51330c	-0.20429629
154	0xbd792c22	-0.060833104
155	0xb99c045e	-0.00029757892
156	0x3ec48d9f	0.38389298
157	0xbda3af26	-0.07992391
158	0xbe24f6ba	-0.16109744
159	0xbeb3246c	-0.34988725
160	0x3e901284	0.28139126
161	0x3ed54da1	0.4166079
162	0xbe53b0a1	-0.20672847
163	0x3e852c13	0.26010188
164	0xbc9a7853	-0.018856203
165	0x3db7af31	0.08968962
166	0x3ef0fec0	0.4706936
167	0xbe49dc3d	-0.1971292
168	0xbe995b1e	-0.2995233
169	0xbe868679	-0.2627447
170	0xbd6ababc	-0.05730699
171	0xbe17101a	-0.14752236
172	0x3e7223ea	0.23646513
173	0x3edb750f	0.42862746
174	0xbdb3805a	-0.087647155
175	0xbecc08ed	-0.3985056
176	0x3e1e2e87	0.15447436
177	0xbe2cf011	-0.16888453
178	0x3cd7460d	0.02627852
179	0xbdb1c421	-0.08679987
180	0x3f005975	0.501365
181	0xbe5b5ca4	-0.21422058
182	0x3d0664b9	0.0328109
183	0x3df6bac9	0.12047345
184	0xbd8dc6b5	-0.06922666
185	0x3d0478c9	0.032341752
186	0xbdcb6de4	-0.09933069
187	0x3f0f1dd1	0.5590487
188	0x3cb62b14	0.022237338
189	0x3f10115a	0.56276476
190	0xbd8b92ce	-0.0681511
191	0x3ef9607a	0.48706418
192	0x3e8d6361	0.27614883
193	0xbf09d6c9	-0.5384336
194	0xbe817578	-0.25284934
195	0xbe40b60f	-0.1881945
196	0xbed34bec	-0.4126886
197	0x3e857fd3	0.26074085
198	0xbebc9d3a	-0.36838704
199	0x3e7d8753	0.24758653
200	0x3eb17281	0.34657672
201	0x3d115a5b	0.03548656
202	0xbe810037	-0.25195476
203	0xbf058bdf	-0.5216655
204	0x3e0e5e6d	0.13903208
205	0xbcb7d37a	-0.022439707
206	0xbef9ef6e	-0.48815483
207	0x3ed1bc4b	0.4096397
208	0xbea1bfb5	-0.31591573
209	0xbd2c9c68	-0.042141348
210	0x3c40c12c	0.011764806
211	0xbedf2d1c	-0.43589103
212	0xbd2e0794	-0.042487696
213	0x3ec6e349	0.3884528
214	0x3ed0e619	0.4080055
215	0xbece8c87	-0.4034159
216	0x3ee58912	0.4483114
217	0x3e9b6a60	0.30354595
218	0x3c63e12c	0.013908666
219	0xbe786fde	-0.24261424
220	0x3ed97e3c	0.42479122
221	0xbe585051	-0.21124388
222	0xbe223ee1	-0.15844299
223	0xbed11e6a	-0.40843517
224	0xbea024fb	-0.31278214
225	0x3eede9bc	0.46467388
226	0x3ee4bda1	0.44675925
227	0x3d992aff	0.07478904
228	0xbee8c343	-0.45461473
229	0xbea3fd0f	-0.32029006
230	0xbd970376	-0.07373707
231	0xbe09fb92	-0.13474873
232	0x3cdd6fee	0.027030911
233	0xbed8a371	-0.42312196
234	0x3daea011	0.08526624
235	0xbea5df51	-0.3239694
236	0x3e36ac5d	0.17839189
237	0x3e4c04e9	0.19923748
238	0xbed8a674	-0.42314494
239	0x3ddf618c	0.109072775
240	0x3e953db3	0.29148635
241	0x3ebfeb64	0.37484276
242	0x3efbba54	0.49165595
243	0xbeac23e8	-0.33621144
244	0xbe9bde78	-0.30443168
245	0xbef16bf1	-0.47152665
246	0x3ed4494b	0.41462168
247	0xbc492fe3	-0.0122794835
248	0x3ced1eed	0.02894541
249	0x3eced577	0.40397236
250	0xbed3d97d	-0.41376868
251	0x3de0ca8f	0.10976135
252	0xbef08643	-0.46977434
253	0x3e2ba03f	0.16760348
254	0x3ce87a18	0.028378531
255	0x3ec1e60c	0.37870824

levels.1.layers.0.0.conv.bias f4 [64]
0	0x3e44bb60	0.19212103
1	0xbee2f67d	-0.4432868
2	0x3d8b9344	0.06815198
3	0x3e0e082a	0.13870302
4	0xbd19fe9d	-0.037596334
5	0xbef07863	-0.46966848
6	0x3dca084a	0.09864862
7	0xbea41b87	-0.32052252
8	0x3dbbd66e	0.091717586
9	0x3e1ceb5c	0.15324157
10	0xbed8adac	-0.4232
11	0x3e44e6a1	0.19228603
12	0xbe5aec0d	-0.21379109
13	0x3e4d3484	0.20039564
14	0xbed45c84	-0.41476834
15	0x3e5d40c3	0.21606736
16	0x3e11e3f0	0.14247108
17	0x3d9ca212	0.076481
18	0xbecc5bd3	-0.39913806
19	0x3ec23cbe	0.37936968
20	0xbe7b2c6b	-0.24528663
21	0x3e8c30c0	0.27380943
22	0xbe9435d9	-0.28947333
23	0xbcedd92c	-0.02903422
24	0x3c99755a	0.018732715
25	0xbca80b22	-0.020513121
26	0x3e4d16d6	0.20028242
27	0xbdb4755b	-0.08811446
28	0xbe85c5ad	-0.26127377
29	0x3dc79dc4	0.09746888
30	0xbe9c89d1	-0.30573896
31	0xbd8fc8f7	-0.07020753
32	0xbddd4852	-0.1080481
33	0x3e5d7968	0.21628344
34	0x3e793be7	0.24339257
35	0xbee8979f	-0.45428178
36	0x3c13a9fc	0.009012695
37	0xbddd3288	-0.10800654
38	0xbe52552e	-0.20540306
39	0xbf04025f	-0.5156612
40	0xbe6dc58f	-0.23219894
41	0x3eed50f3	0.46350822
42	0xbde6fa65	-0.11278228
43	0x3e61d935	0.22055514
44	0xbe9c01fb	-0.3047026
45	0xbe20972a	-0.15682665
46	0xbd46d325	-0.048541207
47	0xbcf488c3	-0.02985037
48	0x3e785fcf	0.24255298
49	0xbee3df55	-0.44506326
50	0x3debe28c	0.1151782
51	0x3eb2da6b	0.34932265
52	0xbeebda90	-0.46065187
53	0xbe2147cb	-0.15750043
54	0xbec8b80f	-0.39202926
55	0x3edb4ff1	0.42834428
56	0x3e75023b	0.23926632
57	0x3e86a6bc	0.26299083
58	0x3d875689	0.06608302
59	0x3e9ce0bc	0.3064021
60	0xbec1a205	-0.37818924
61	0xbe3e15fa	-0.18563071
62	0x3ed68668	0.4189942
63	0x3d5fe19d	0.05465852
